exploration101/Q_next.pt (torch, 14167 bytes, 6 tensors)

fc1.weight f4 [64, 13]
0	0x3e14b7a8	0.14523184
1	0xbc0eed00	-0.008723497
2	0x3de86fa0	0.11349416
3	0xbe0cfaeb	-0.13767593
4	0xbdc85b54	-0.097830445
5	0xbe46ecee	-0.19426319
6	0x3e1e8710	0.1548121
7	0xbe89aa37	-0.26887676
8	0xbe6d297b	-0.23160355
9	0x3d7a6f58	0.061141342
10	0x3dcf70fc	0.10128972
11	0x3db601f8	0.08887094
12	0xbe0df57d	-0.13863178
13	0xbe7b9550	-0.24568677
14	0x3e57e336	0.21082768
15	0x3dd09a58	0.10185689
16	0x3d0a97d8	0.033836216
17	0x3e170d58	0.14751184
18	0xbac98800	-0.0015375614
19	0xbe2c28f3	-0.16812496
20	0x3e41d470	0.18928695
21	0xbe4e87f2	-0.20169047
22	0x3dd693ac	0.10477385
23	0x3e5ebcee	0.21751758
24	0x3dc3d128	0.09561378
25	0xbdb7855c	-0.08960983
26	0xbe318146	-0.1733447
27	0x3e18b91a	0.1491436
28	0x3e8380af	0.25684115
29	0x3e061c58	0.1309675
30	0xbd9aa022	-0.07550074
31	0x3d782fa0	0.060592294
32	0x3b600300	0.0034181476
33	0x3e03951e	0.12849852
34	0x3da409e0	0.08009696
35	0x3e58b3d6	0.21162352
36	0xbe78db5e	-0.24302432
37	0xbe19ea6f	-0.15030836
38	0xbc855c30	-0.01627931
39	0x3e517d4a	0.2045795
40	0x3e1feaa4	0.15616852
41	0xbdf73bf8	-0.12071985
42	0x3e264de0	0.16240644
43	0xbe40ccba	-0.18828097
44	0xbda46bcc	-0.08028373
45	0xbe55b3d6	-0.20869383
46	0xbe01bbc8	-0.12669289
47	0xbe6a933a	-0.22907725
48	0x3dd23748	0.1026445
49	0xbe7438c1	-0.23849775
50	0x3ddda3d4	0.10822263
51	0xbd60e5d4	-0.05490668
52	0x3dbb2b50	0.091391206
53	0xbe798650	-0.24367642
54	0x3e377640	0.17916203
55	0x3d9cc764	0.07655218
56	0xbe8ccb75	-0.27498975
57	0xbe8dff23	-0.27733716
58	0x3e84f8f1	0.25971177
59	0x3e360d90	0.17778611
60	0xbe694ce8	-0.22783244
61	0x3df09a28	0.11748153
62	0xbe575cdc	-0.21031517
63	0xbdd87614	-0.105693966
64	0x3dcdaaf4	0.10042372
65	0xbe509a3c	-0.20371336
66	0xbd8adc46	-0.06780295
67	0xbe7b5f0e	-0.24547979
68	0xbddefd88	-0.10888201
69	0x3d6300e0	0.055420756
70	0xbe43f73c	-0.19137281
71	0x3d98c168	0.07458764
72	0xb987b400	-0.00025883317
73	0xbe877753	-0.26458225
74	0x3e869ca1	0.26291373
75	0x3dc3d644	0.09562352
76	0x3e77e6fa	0.24209204
77	0xbe8116a2	-0.2521258
78	0x3e65c81e	0.2243962
79	0x3d6d9e28	0.058012158
80	0xbe36e672	-0.17861345
81	0x3e5fed72	0.21867922
82	0xbd87d4ce	-0.06632386
83	0x3e5ee078	0.21765316
84	0xbe8882ff	-0.26662442
85	0x3d1e8de8	0.03870955
86	0x3d40b118	0.04704389
87	0xbdbf6402	-0.09345247
88	0x3da6a714	0.081373364
89	0xbe78e311	-0.24305369
90	0xbdb43304	-0.08798793
91	0x3e48dbcc	0.19615096
92	0x3d980e44	0.07424596
93	0x3e860811	0.2617803
94	0x3e0c2b84	0.13688475
95	0xbe3ae1a7	-0.18250142
96	0x3de1f078	0.11032194
97	0xbd8f1ffe	-0.06988524
98	0x3e5827e2	0.21108964
99	0x3e30f474	0.17280751
100	0x3e2e53a6	0.17024097
101	0xbe41ab92	-0.18913105
102	0xbe824d61	-0.2544966
103	0xbe577990	-0.21042466
104	0xbe5e09c9	-0.2168342
105	0xbd6ee454	-0.05832322
106	0xbc977e40	-0.018492818
107	0xbdb5424e	-0.08850537
108	0x3dc7eae8	0.09761602
109	0xbde67bc6	-0.11254077
110	0xbe887a2a	-0.26655704
111	0x3e587f6c	0.21142358
112	0xbd958442	-0.07300617
113	0x3e34259e	0.17592475
114	0xbe612774	-0.21987706
115	0x3e8c2563	0.27372274
116	0xbd91bf10	-0.071165204
117	0xbe23b302	-0.15986255
118	0xbe8be033	-0.27319488
119	0x3de5d980	0.112231255
120	0xbe8da056	-0.2766139
121	0x3e2eb450	0.17060971
122	0x3e82fe89	0.2558482
123	0xbe8212dc	-0.25405014
124	0xbe698fac	-0.22808713
125	0x3d0a8b98	0.033824533
126	0x3c8d99c0	0.017285228
127	0x3c8ddcc0	0.017317176
128	0x3b819540	0.0039545596
129	0x3e7d094a	0.24710575
130	0xbd727440	-0.059192896
131	0x3d15af98	0.036544412
132	0xbd540d6c	-0.051770613
133	0x3e39152e	0.18074486
134	0xbd9f561a	-0.077800944
135	0xbe8623e2	-0.2619925
136	0xbe06880d	-0.13137837
137	0xbe721f90	-0.23644853
138	0x3e61026a	0.21973577
139	0xbe64c56e	-0.22340938
140	0xbdfa85b0	-0.1223253
141	0x3d7b21c0	0.061311483
142	0xbddc2c36	-0.1075062
143	0xbe1fa902	-0.15591815
144	0xbd0f5d78	-0.035001248
145	0x3d0d14a0	0.034443498
146	0x3e8dacb5	0.27670828
147	0xbd8f39c6	-0.06993441
148	0x3e69f732	0.22848204
149	0xbcc92d30	-0.02455768
150	0x3dd04e44	0.10171178
151	0xbe2198cc	-0.15780944
152	0xbdafe2de	-0.08588193
153	0xbe516e84	-0.20452315
154	0x3e5d9b76	0.21641335
155	0xbe8c02a3	-0.27345762
156	0xbdd7efb0	-0.10543764
157	0xbd2caac8	-0.042155057
158	0x3e45194c	0.19247931
159	0xbe5eee1f	-0.21770523
160	0xbc327b60	-0.010893673
161	0x3e503194	0.20331413
162	0x3d9a1f5c	0.075255126
163	0xbe170eb1	-0.14751698
164	0xbe8cdc2a	-0.27511722
165	0x3d28ea90	0.04123932
166	0xbd18b3ac	-0.037280723
167	0xbe41c590	-0.1892302
168	0xbe3424ba	-0.17592135
169	0xbb8368c0	-0.00401029
170	0xbe04aa51	-0.12955596
171	0x3e5be9ba	0.21475878
172	0xbdec05b4	-0.11524525
173	0x3d535be0	0.05160129
174	0x3c2a52e0	0.0103957355
175	0xbe27f275	-0.16401084
176	0x3e15f4ea	0.14644209
177	0x3e26bba6	0.1628252
178	0xbe85b589	-0.26115063
179	0x3e85b5cb	0.2611526
180	0xbdca9cd2	-0.09893192
181	0x3e55c37e	0.20875356
182	0xbe6d1924	-0.23154122
183	0x3df1dea0	0.118100405
184	0xbe143fa0	-0.14477396
185	0x3e75074e	0.23928568
186	0xbdd4c4bc	-0.103890866
187	0xbddaa378	-0.106757104
188	0x3e6b83ce	0.22999498
189	0xbd5164e0	-0.051121593
190	0xbded10ac	-0.115754455
191	0x3d70a7d8	0.05875382
192	0x3e254ecc	0.1614334
193	0xbe5a9fea	-0.21350065
194	0x3e63ffe6	0.22265586
195	0xbe033a0e	-0.12815115
196	0xbe49198b	-0.1963865
197	0x3c44cc60	0.012011617
198	0x3e8a8f45	0.2706243
199	0x3e8103a3	0.25198087
200	0x3c0ff2a0	0.008785874
201	0xbe59e768	-0.2127968
202	0x3dfafe74	0.12255564
203	0xbd39fa60	-0.04540479
204	0x3e79b14e	0.24384043
205	0x3e36d42a	0.17854372
206	0xbd68b49c	-0.056812868
207	0x3d52c260	0.0514549
208	0x3d5a11b8	0.053239554
209	0xbdd81190	-0.10550225
210	0xbbd6ed40	-0.006559044
211	0xbe666591	-0.22499682
212	0x3dabee0c	0.08395013
213	0xbe26b838	-0.16281211
214	0xbe4a41fa	-0.1975173
215	0xbdd58b24	-0.104269296
216	0xbd5fa75c	-0.054602966
217	0x3e825c8f	0.25461242
218	0xbe15f87b	-0.14645569
219	0xbe67c869	-0.22635044
220	0x3e897a4b	0.26851115
221	0xbda09ee8	-0.07842809
222	0xbe7de2f5	-0.24793608
223	0xbd207038	-0.03916952
224	0xbdf38268	-0.118901074
225	0x3e0f42ea	0.1399037
226	0xbe169a3d	-0.14707275
227	0x3e709eb2	0.23498037
228	0xbe855ec8	-0.26048875
229	0xbde001c2	-0.10937835
230	0x3e070c04	0.13188177
231	0x3dd8dca0	0.10588956
232	0x3e493ea2	0.19652799
233	0x3debeb24	0.11519459
234	0xbd4adfac	-0.049529716
235	0x3d989ce8	0.074518025
236	0x3db99ff0	0.09063709
237	0xbb622a80	-0.0034510195
238	0x3e8976e7	0.26848528
239	0xbe22a970	-0.15884948
240	0xbe867c08	-0.26266503
241	0x3c85ce50	0.016333729
242	0x3d002ab8	0.03129074
243	0xbe5fee24	-0.21868187
244	0xbdf4a7fa	-0.119461015
245	0xb9de6000	-0.00042414665
246	0xbd8d6ee0	-0.06905913
247	0x3e858f8b	0.26086077
248	0xbe566ba0	-0.20939493
249	0x3cb36460	0.021898448
250	0xbe392334	-0.18079835
251	0xbdda5d78	-0.10662359
252	0xbe57289e	-0.21011588
253	0x3bb9ab80	0.0056661963
254	0x3e5ec894	0.21756202
255	0x3d0c25c8	0.03421572

fc1.bias f4 [64]
0	0x3e00b448	0.12568772
1	0x3df834cc	0.12119445
2	0x3e268662	0.162622
3	0x3e0f03f6	0.13966355
4	0x3dbb1c98	0.09136313
5	0xbe88bff9	-0.26708964
6	0x3e872d73	0.26401863
7	0xbd162720	-0.036658406
8	0xbe319fac	-0.17346066
9	0xbe1c787a	-0.15280333
10	0x3e4397a8	0.19100821
11	0x3e5ea370	0.21742034
12	0xbd4d1d60	-0.050076842
13	0xbe6b783c	-0.22995085
14	0xbd82b194	-0.063815266
15	0xbe64815e	-0.22314975
16	0x3d815e30	0.06316793
17	0x3e0238b4	0.12716943
18	0x3e19dac4	0.15024859
19	0x3e7fbf06	0.24975213
20	0x3e199702	0.14999011
21	0xbdd87c94	-0.105706364
22	0xbe16096d	-0.14652033
23	0xbd79273c	-0.060828432
24	0x3dbcf300	0.09226036
25	0x3e4bea0e	0.19913504
26	0xbd363668	-0.04448548
27	0xbe809b50	-0.25118494
28	0x3e5eddd4	0.21764308
29	0x3da94510	0.08265126
30	0x3e31efd0	0.17376637
31	0x3dc12218	0.09430331
32	0x3e3197c8	0.17343056
33	0xbe42a1ad	-0.19006987
34	0x3e6d315e	0.23163363
35	0x3e1352d6	0.14387068
36	0x3e0a84c2	0.13527206
37	0x3d442e50	0.04789573
38	0xbe343680	-0.17598915
39	0x3e3efd24	0.18651253
40	0x3e0b4aee	0.13602802
41	0xbe0cd2ce	-0.1375229
42	0xbe7652bc	-0.24054998
43	0x3e0df246	0.13861951
44	0xbd61ed60	-0.05515802
45	0x3e547874	0.20749074
46	0xbe1b5a60	-0.15171194
47	0xbd2bbe3c	-0.04192947
48	0xbe6ea90a	-0.23306671
49	0xbe4aec22	-0.1981664
50	0x3e3f05e0	0.18654585
51	0x3e4bd5e4	0.19905812
52	0xbdfe4822	-0.12416102
53	0xbd158cc8	-0.036511213
54	0x3e50a07c	0.2037372
55	0x3e699aa2	0.22812894
56	0xbc66e4c0	-0.014092624
57	0xbdfc71be	-0.12326382
58	0x3ad67700	0.0016362369
59	0xbe554724	-0.20827919
60	0x3e1345cc	0.14382094
61	0x3e04ef1c	0.12981838
62	0x3e528046	0.20556745
63	0xbe426a6a	-0.18985906

fc2.weight f4 [32, 64]
0	0xbdee0162	-0.116213575
1	0xbd4170a4	-0.047226563
2	0xbd2e75bc	-0.04259275
3	0xbd2dde60	-0.0424484
4	0xbd87f3ec	-0.06638321
5	0xbdb155d6	-0.0865895
6	0xbdc51fca	-0.09625204
7	0xbbea4e00	-0.0071504116
8	0x3dac4b7e	0.084128365
9	0x3cc6dbe8	0.024274781
10	0x3cc1c208	0.023652092
11	0xbc8262f8	-0.015916333
12	0xbc8f4490	-0.017488748
13	0xbde9a14c	-0.11407718
14	0x3d580b18	0.052744955
15	0xbd948fee	-0.07254015
16	0x3dbc8a86	0.09206109
17	0x3df51898	0.119675815
18	0xbd6f5d18	-0.05843839
19	0xbdd31c40	-0.10308123
20	0x3d9b0c28	0.07570678
21	0xbdef50cc	-0.11685333
22	0x3da6c5b6	0.08143179
23	0xbdc03bcc	-0.09386405
24	0xbd6be16c	-0.057588026
25	0xbbee3660	-0.0072696656
26	0xbcc0f380	-0.02355361
27	0x3d781950	0.060571015
28	0x3d49cacc	0.049265668
29	0x3c87cd00	0.016577244
30	0x3d52175c	0.05129181
31	0x3d488ff8	0.048965424
32	0x3d25eee0	0.040511012
33	0xbd3968b8	-0.045265883
34	0x3dc23684	0.09483054
35	0xbc387d00	-0.011260271
36	0xbdea78e6	-0.11448841
37	0x3d62399c	0.05523072
38	0x3de32e2a	0.110927895
39	0xbd2d1bb0	-0.042262733
40	0x3d155d04	0.03646566
41	0x3ac19000	0.0014767647
42	0xbd9590f8	-0.07303041
43	0x3cb70678	0.022341952
44	0x3d86709c	0.06564447
45	0x3da4db6c	0.08049664
46	0x3d9eaf4c	0.07748279
47	0xbc3d6440	-0.011559546
48	0xbdc4607a	-0.09588714
49	0x3d06af98	0.032882303
50	0xbda4d286	-0.08047967
51	0x3db44aac	0.08803305
52	0xbc7c3f40	-0.015395939
53	0xbb5f20c0	-0.003404662
54	0xbba5c240	-0.005058557
55	0x3dfdce3c	0.12392852
56	0x3c799f30	0.015235707
57	0x3c3114b0	0.010808155
58	0x3dfbc4a8	0.122933686
59	0xbcb4d118	-0.02207236
60	0x3aad8100	0.0013237298
61	0x3d54158c	0.05177836
62	0xbdf36924	-0.11885288
63	0x3df60b10	0.12013829
64	0x3cd12be8	0.025533631
65	0xbd5987fc	-0.0531082
66	0x3dfab334	0.122412115
67	0x3d6b43e0	0.057437778
68	0xbda348b6	-0.07972853
69	0xbdd1400c	-0.10217294
70	0x3d5c9554	0.053853348
71	0xbd959ad2	-0.0730492
72	0x3c028cf0	0.007968172
73	0xbd98bdd8	-0.07458085
74	0x3d8ae5e6	0.06782131
75	0xbd83ba22	-0.064319864
76	0xbccbc758	-0.024875328
77	0xbdc6cc04	-0.09706882
78	0xbdb3a6c6	-0.08772044
79	0x3d34cfa8	0.04414335
80	0xbc1f34d0	-0.009717181
81	0xbcb8c0d8	-0.022552893
82	0xbcb60368	-0.022218421
83	0x3d55d904	0.052208915
84	0xbd0f7db4	-0.03503199
85	0xbd83ad56	-0.064295456
86	0xbdbfd11a	-0.09366055
87	0x3d3a3224	0.045457974
88	0xbdf3321c	-0.11874792
89	0x3dec4bc8	0.115378916
90	0xbd07223c	-0.032991633
91	0xbda8402c	-0.08215365
92	0xbcda3c80	-0.026640177
93	0x3d523794	0.051322535
94	0xbcc85dd0	-0.024458796
95	0x3dedeada	0.1161706
96	0x3c0ae7f0	0.00847815
97	0x3c0917b0	0.008367464
98	0x3db4dac8	0.08830792
99	0x3dc5ba9c	0.096547335
100	0x3d82074e	0.063490495
101	0xba9c3480	-0.0011917502
102	0x3d1d471c	0.038397893
103	0x3cdeeef8	0.027213559
104	0xbdb3d360	-0.08780551
105	0x3d0e8d08	0.034802467
106	0xb8b57800	-8.653104e-05
107	0xbd54420c	-0.0518208
108	0xbde8047a	-0.11328979
109	0x3dec0cdc	0.1152589
110	0x3cff51c0	0.031166911
111	0xbc4907f0	-0.012269959
112	0xbdeb74a4	-0.11496857
113	0x3dca9e86	0.09893517
114	0x3d2ceeb0	0.042219818
115	0x3a774f00	0.0009434074
116	0x3d2c2b80	0.042033672
117	0xbdeade80	-0.1146822
118	0xbcfa0788	-0.03052117
119	0xbd17b604	-0.037038818
120	0xbdb1cd7c	-0.08681771
121	0xbc661e80	-0.014045358
122	0xbdebe4ce	-0.115182504
123	0x3d1e43ec	0.038638994
124	0x3d21acb8	0.039471358
125	0xbcc37cf0	-0.023863286
126	0xbdbb6e5c	-0.09151909
127	0x3cfbcbb8	0.03073679
128	0x3d1daf00	0.03849697
129	0x3d898e30	0.06716573
130	0x3ca93990	0.02065733
131	0xbc892590	-0.016741544
132	0xbc3e8940	-0.011629403
133	0xbd55978c	-0.05214648
134	0xbda7ac68	-0.08187181
135	0x3d3adaac	0.045618698
136	0xbdcfc56e	-0.101450786
137	0xbd395aa8	-0.045252472
138	0xbd88fe5a	-0.06689139
139	0x3dcb1f9a	0.09918137
140	0x3d6b7ba0	0.057490945
141	0x3dcac69c	0.09901163
142	0x3da6d446	0.08145957
143	0x3cdad2f0	0.026711911
144	0xbcc467b8	-0.023975238
145	0xbd924b0a	-0.07143219
146	0x3d02c724	0.031928197
147	0x3dc2365c	0.094830245
148	0x3dac71ce	0.08420144
149	0xbda2b9e2	-0.079456106
150	0xbd7aee04	-0.061262146
151	0x3db5feec	0.08886513
152	0xbd9fd6bc	-0.07804629
153	0x3dc8c0bc	0.09802386
154	0x3d4f5320	0.050616384
155	0x3b811d00	0.0039402246
156	0x3d54ac98	0.05192241
157	0xbda59fbc	-0.080871075
158	0xbdf3b8ca	-0.1190048
159	0x3bf72740	0.0075425208
160	0x3ddc4142	0.107546344
161	0x3df260a0	0.11834836
162	0x3dbfa094	0.093568
163	0xbd8c868e	-0.06861602
164	0x3d3f7b04	0.046748176
165	0xbd5031d8	-0.050828785
166	0x3ac08c80	0.001469031
167	0x3cdc4748	0.026889458
168	0x395c5000	0.00021010637
169	0xbc93e3f8	-0.01805304
170	0x3cbd1200	0.023079872
171	0xbdc69070	-0.09695518
172	0x3ddc1eac	0.10748038
173	0x3df7b1da	0.12094469
174	0xbdfd0d22	-0.123560205
175	0x3bfb91c0	0.007677287
176	0xbdb6f5a6	-0.089335725
177	0xbdf8bc7e	-0.12145327
178	0x3d87ec42	0.066368595
179	0x3dfd4b82	0.123679176
180	0xbd8042e8	-0.06262761
181	0xbbb87c00	-0.0056300163
182	0xbdc8bcf0	-0.09801662
183	0xbd3fa214	-0.04678543
184	0xbd50a54c	-0.05093889
185	0x3dc6ed18	0.09713191
186	0x3da955c8	0.082683146
187	0xbda044fc	-0.07825658
188	0x3d38b21c	0.045091733
189	0x3d8c4d7e	0.06850718
190	0x3deaa080	0.11456394
191	0xbddc13e8	-0.10745984
192	0x3a0e2900	0.00054229796
193	0x3dd4bfde	0.10388158
194	0xbca510c0	-0.020149589
195	0xbd256648	-0.040380746
196	0xbdaefe9e	-0.08544658
197	0x3df4b432	0.11948432
198	0x3cfda608	0.030962959
199	0xbdd86fc0	-0.105681896
200	0xbd8315da	-0.06400652
201	0x3d917952	0.07103218
202	0x3d76d9ec	0.06026642
203	0xbc5cd0d0	-0.013477519
204	0xbc9bfdb8	-0.019041881
205	0x3c2cd7c0	0.010549486
206	0xbdd01ba0	-0.10161519
207	0x3de42340	0.11139536
208	0xbdef9ea0	-0.11700177
209	0xbd38f4a4	-0.045155182
210	0xbd08c304	-0.033389106
211	0xbdb9d678	-0.0907411
212	0xbc81cbe0	-0.015844285
213	0xbde03b50	-0.10948813
214	0x3b179500	0.0023129582
215	0x3db77f06	0.08959775
216	0xbd8c3492	-0.068459645
217	0x3c9b95a8	0.01899226
218	0xbd0140dc	-0.031555995
219	0x3da4f2d0	0.08054125
220	0x3c99e848	0.018787518
221	0xbd4c70b4	-0.04991217
222	0x3ceac058	0.02865617
223	0x3da15fda	0.0787961
224	0x3d153aac	0.036432907
225	0xbdae847e	-0.08521365
226	0x3df65002	0.12026979
227	0xbb63fc40	-0.0034787804
228	0x3da9d4e4	0.08292559
229	0x3ce038f0	0.0273709
230	0xbdb06ca4	-0.086144716
231	0x3da7f61a	0.08201237
232	0xbb9d50e0	-0.004800901
233	0x3d9a9e56	0.075497314
234	0xbda33da8	-0.07970744
235	0x3dfec5a0	0.12440038
236	0x3deca7be	0.11555432
237	0x3db956ba	0.09049745
238	0xbd99da3e	-0.075123295
239	0xbd7ed72c	-0.062216923
240	0xbd9c3d34	-0.07628861
241	0x3d083d20	0.03326142
242	0xbdd4d29a	-0.103917316
243	0xbdefebe6	-0.11714916
244	0xbdd3c034	-0.10339394
245	0x3c6464f0	0.013940081
246	0x3d1c51e4	0.038164034
247	0x3cf06d40	0.02934897
248	0xbd52b6ac	-0.05144374
249	0x3cbb7ba0	0.022886097
250	0xbb86f4a0	-0.004118517
251	0xbcf9b4b0	-0.030481666
252	0xbb9af880	-0.0047293305
253	0x3d1e3854	0.038627937
254	0x3da6d118	0.0814535
255	0xbd2a95b8	-0.04164669

fc2.bias f4 [32]
0	0xbdbbaa58	-0.0916335
1	0xbdb79916	-0.08964746
2	0x3c8716b0	0.01649031
3	0xbde710a8	-0.11282474
4	0x3bcf8bc0	0.006333798
5	0x3c630d80	0.013858199
6	0xbd839342	-0.064245716
7	0x3ddf97f8	0.109176576
8	0xbd1b89ec	-0.03797333
9	0xbd0665dc	-0.032811984
10	0x3d90c47c	0.070687264
11	0xbd714894	-0.058907107
12	0xbccdb968	-0.025112823
13	0x3df4d130	0.11953962
14	0xbcdb6928	-0.02678354
15	0xbc351220	-0.011051685
16	0xbdcd02a0	-0.10010266
17	0xbdc821c8	-0.09772068
18	0x3c7af030	0.015316054
19	0x3d3920ec	0.045197412
20	0xbd95a102	-0.073061004
21	0x3d9b6b4e	0.07588826
22	0x3cad2d18	0.021139666
23	0x3d427a04	0.047479644
24	0xbdc69f70	-0.09698379
25	0xbddc7baa	-0.107657745
26	0xbd394344	-0.045230165
27	0x3de62c1c	0.11238882
28	0x3c2d5130	0.010578439
29	0x3dadce14	0.08486572
30	0xbd4d54b8	-0.050129622
31	0x3dff3d40	0.124628544

fc3.weight f4 [3, 32]
0	0x3e26583b	0.16244595
1	0xbc89f400	-0.016839981
2	0xbd9b1b4e	-0.07573567
3	0x3e2fe7b1	0.17178227
4	0xbd4d4ee4	-0.050124064
5	0xbe0e0dcd	-0.13872452
6	0xbd562258	-0.052278847
7	0x3d416754	0.047217682
8	0xbe11b222	-0.14228109
9	0xbaf04300	-0.0018330514
10	0x3e1d79a9	0.15378441
11	0x3e036f9b	0.12835543
12	0x3da5372a	0.08067162
13	0xbd689844	-0.056785837
14	0xbde5d76d	-0.1122273
15	0x3d8af976	0.06785862
16	0xbda69f06	-0.081358
17	0xbdc78d34	-0.09743729
18	0xbe130b47	-0.1435977
19	0x3e29e4a9	0.16591133
20	0x3dbaf426	0.09128599
21	0x3e05ca0b	0.13065355
22	0x3dedfc72	0.11620416
23	0xbd53be80	-0.051695347
24	0x3dde5136	0.108553335
25	0x3c195ec0	0.009360969
26	0x3df927b2	0.121657744
27	0x3e23cacd	0.15995331
28	0xbe125cbd	-0.1429319
29	0xbce7e378	-0.028306708
30	0xbdb54770	-0.08851516
31	0x3e0ae23b	0.13562863
32	0xbd731c8e	-0.059353404
33	0xbc889848	-0.016674176
34	0xbd0f0344	-0.034915224
35	0x3de00172	0.10937776
36	0xbe086491	-0.13319613
37	0x3dd26fca	0.10275228
38	0xbda28c1b	-0.07936879
39	0x3e1d87e9	0.15383877
40	0xbb11de40	-0.0022257715
41	0x3e04c65f	0.12966298
42	0xbdd57f69	-0.10424692
43	0x3d21b5c8	0.03948
44	0xbde3860e	-0.11109553
45	0x3ceb0d50	0.028692871
46	0x3de90ce6	0.11379413
47	0x3dc79d9e	0.0974686
48	0xbe15fa16	-0.14646181
49	0x3d9eb686	0.07749657
50	0xbd154cac	-0.036450073
51	0xbdbe06fd	-0.09278677
52	0xbd9ff00e	-0.07809459
53	0xbe0e2d1a	-0.13884392
54	0x3d37ccec	0.044873163
55	0xbbeb6380	-0.007183492
56	0x3de6ca4a	0.11269052
57	0x3d2b2c44	0.041790262
58	0x3acba380	0.0015536398
59	0x3df736b6	0.12070982
60	0x3da75c7a	0.081719354
61	0x3c36ce40	0.011157572
62	0xbe0982d3	-0.13428812
63	0x3e12bd7b	0.14330094
64	0xbe0b3e83	-0.13598065
65	0xbe2de103	-0.16980366
66	0xbaf3fb80	-0.0018614382
67	0xbcd9a720	-0.02656895
68	0xbe05bc40	-0.13060093
69	0x3c4ad4e0	0.012379855
70	0x3e02cde1	0.12773849
71	0x3c792c70	0.015208349
72	0x3dcea5ce	0.100902185
73	0x3ca96cc0	0.020681739
74	0xbdb89bd0	-0.09014094
75	0xbdffd082	-0.124909416
76	0xbd2a936c	-0.0416445
77	0xbdbf303d	-0.093353726
78	0xbe08761e	-0.13326308
79	0xbe079b1a	-0.1324276
80	0x3e1e2d99	0.15447082
81	0x3e130905	0.1435891
82	0xbd509afc	-0.050929055
83	0xbdc0b1b4	-0.09408894
84	0x3d66ecf0	0.056378305
85	0xbd2b67e4	-0.041847125
86	0x3e04f265	0.12983091
87	0xbe283e7d	-0.16430087
88	0x3d8efdf4	0.069820315
89	0x3d886ce4	0.06661394
90	0xbe10eaa4	-0.14152008
91	0x3d8cbc16	0.06871812
92	0x3d40cfc8	0.047073156
93	0xbc877d88	-0.01653935
94	0x3d59d398	0.053180307
95	0x3e24eedd	0.16106744

fc3.bias f4 [3]
0	0x3debeb4a	0.11519487
1	0x3df14eba	0.11782594
2	0xbd5c6dc0	-0.053815603
