training40/Q_next.pt (torch, 14167 bytes, 6 tensors)

fc1.weight f4 [64, 13]
0	0xbe38bc03	-0.18040471
1	0xbda4d66e	-0.08048712
2	0x3e42fad7	0.19041
3	0xbe731bbf	-0.23741053
4	0x3e0e91c4	0.13922793
5	0x3d90a711	0.070631154
6	0x3e00bb03	0.1257134
7	0xbdd067f6	-0.10176079
8	0x3e971db6	0.29514855
9	0x3d84ec94	0.06490436
10	0xbd3735cb	-0.044729035
11	0x3e8ca03a	0.27465993
12	0xbe20a8b3	-0.15689354
13	0xbe71685c	-0.23574966
14	0x3d88cd14	0.066797405
15	0x3d9d11b8	0.07669395
16	0xbd8518ca	-0.06498869
17	0xbe03b507	-0.12862025
18	0x3d37cd20	0.044873357
19	0xbe5cf48a	-0.21577659
20	0xbe6fffde	-0.2343745
21	0xbe8d55a0	-0.2760439
22	0xbe069413	-0.13142423
23	0xbde5e852	-0.11225952
24	0xbe9c6030	-0.30542135
25	0xbe468116	-0.1938518
26	0xbe439879	-0.19101132
27	0x3e10893d	0.14114852
28	0x3d088f76	0.03333994
29	0x3e8a56ea	0.27019435
30	0x3ccbc02e	0.024871912
31	0x3e8e07df	0.2774038
32	0xbdd4a046	-0.10382132
33	0x3c2a4398	0.010392092
34	0xbd9b6c68	-0.07589036
35	0x3e0176eb	0.1264302
36	0xbcfe3f59	-0.031036066
37	0x3cafdba4	0.021467037
38	0x3d15bf15	0.036559183
39	0xbe98eb05	-0.29866806
40	0xbdb1b666	-0.08677368
41	0xbe6abad6	-0.22922835
42	0x3e0b9d72	0.1363428
43	0xbd2a44fc	-0.041569695
44	0x3cbb9268	0.02289696
45	0xbe52fd23	-0.20604376
46	0x3dd8010b	0.10547074
47	0xbe963522	-0.29337412
48	0x3d9f2ba8	0.07771999
49	0x3dbe2e5b	0.09286185
50	0x3e25d014	0.16192657
51	0xbdbfd75d	-0.09367249
52	0xbe1b947b	-0.1519336
53	0xbc8aa7cf	-0.01692572
54	0x3e3669d0	0.17813802
55	0x3e406eab	0.18792216
56	0xbe1d85ff	-0.15383147
57	0x3d008400	0.031375885
58	0xbd36c728	-0.044623524
59	0xbcfee665	-0.03111572
60	0x3bf9392e	0.0076056933
61	0x3df66eed	0.12032876
62	0xbcab0d16	-0.020880263
63	0x3e86048c	0.26175344
64	0xbccf1c5e	-0.025282081
65	0xbc0e1e40	-0.008674204
66	0x3e48dbee	0.19615147
67	0xbcbc9300	-0.023019314
68	0x3d6501a0	0.055909753
69	0x3cde8a60	0.027165592
70	0x3e4eadb2	0.20183447
71	0xbd9b11b6	-0.075717375
72	0xbd5cfa20	-0.053949475
73	0xbc8c3040	-0.017112851
74	0xbe84ec24	-0.2596141
75	0x3e63e642	0.22255805
76	0xbe80e980	-0.25178146
77	0x3e93b6b3	0.28850326
78	0x3de316d6	0.1108834
79	0x3de90629	0.11378128
80	0x3e38ff72	0.18066195
81	0xbd7abb61	-0.061213855
82	0xbe4a2252	-0.19739655
83	0x3e8592da	0.260886
84	0xbe87f8db	-0.2655705
85	0xbe6f2cf2	-0.23356989
86	0xbe060dcb	-0.13091199
87	0xbd33188f	-0.043724593
88	0x3e834e01	0.2564545
89	0x3e84b5af	0.25919864
90	0xbc473d3f	-0.012160598
91	0xbdd63d0f	-0.10460865
92	0x3dce8290	0.100834966
93	0x3e56cdc9	0.20976938
94	0xbda0b045	-0.07846121
95	0x3e2a290e	0.16617224
96	0x3c537d33	0.012908268
97	0xbcce7447	-0.02520193
98	0xbd9129ac	-0.070880264
99	0x3c1bbacc	0.009504985
100	0xbe470025	-0.19433649
101	0x3d859f51	0.06524528
102	0x3e86ca58	0.2632625
103	0x3e557317	0.20844685
104	0x3e951243	0.29115495
105	0x3e4c7731	0.19967343
106	0xbe837672	-0.25676304
107	0x3e681f18	0.22668111
108	0x3dbafc02	0.09130098
109	0x3ea6378c	0.32464254
110	0x3e3628cb	0.17788999
111	0x3d997a58	0.07494038
112	0xbd8fbc91	-0.07018388
113	0xbe601610	-0.21883416
114	0x3e861d96	0.26194447
115	0x3e773586	0.24141511
116	0xbdef5bd9	-0.116874404
117	0x3d251f87	0.04031327
118	0xbe81ac26	-0.2532665
119	0x3e5feec4	0.21868426
120	0xbe330a13	-0.17484312
121	0x3ded3efe	0.115842804
122	0x3d9aa7ba	0.075515226
123	0xbe332f1e	-0.17498443
124	0x3e03e824	0.12881523
125	0x3e8a964e	0.27067798
126	0xbe0680d6	-0.13135085
127	0xbe67734d	-0.22602578
128	0x3e801431	0.25015405
129	0x3e627c78	0.22117794
130	0x3d80ea08	0.06294638
131	0xbbeeca24	-0.0072872806
132	0xbe69889d	-0.2280602
133	0xbe2c2419	-0.16810645
134	0x3e77fc2b	0.24217288
135	0x3e13fe4d	0.14452477
136	0x3e8ee362	0.27907854
137	0xbdf776b5	-0.120831884
138	0x3ea088d2	0.31354386
139	0x3e962dbf	0.29331776
140	0x3eac9404	0.33706677
141	0x3e8b8453	0.27249393
142	0xbe0f653b	-0.1400346
143	0x3d5630b8	0.052292556
144	0xbddbaf54	-0.107268006
145	0x3e28d830	0.16488719
146	0xbdb64410	-0.08899701
147	0x3e2eaa48	0.17057145
148	0x3e52f7ca	0.20602337
149	0xbda3308c	-0.07968244
150	0xbe693ef0	-0.22777915
151	0xbe82e8ed	-0.25568333
152	0x3e1cf284	0.15326887
153	0xbe34a936	-0.17642674
154	0xbe892623	-0.26786909
155	0xbc26a2a0	-0.010170609
156	0x3e4cbff7	0.19995104
157	0xbe887d55	-0.2665812
158	0xbe90b5c1	-0.28263667
159	0x3bdf0cf0	0.006806962
160	0x3d145d07	0.03622153
161	0xbdafbd18	-0.08580989
162	0x3e7cba22	0.24680379
163	0xbe81a06a	-0.253177
164	0xbd5493d0	-0.051898777
165	0x3e885d85	0.2663385
166	0x3e7c6f78	0.24651897
167	0x3df4b24a	0.119480684
168	0xbcf53674	-0.029933192
169	0x3dd1ae2f	0.10238301
170	0xbe0afd7f	-0.13573264
171	0xbe330132	-0.17480925
172	0xbe733551	-0.23750807
173	0xbe5cdc56	-0.21568426
174	0xbe90c798	-0.28277278
175	0x3e7fed66	0.24992904
176	0x3dffdee8	0.12493688
177	0x3d09e8b4	0.03366919
178	0xbd099da0	-0.03359759
179	0xbd8f84b0	-0.0700773
180	0xbdafd08e	-0.085847005
181	0xbe8cf7bf	-0.27532765
182	0xbe70c4a5	-0.23512514
183	0x3d5eafda	0.054366924
184	0xbc717bb7	-0.014738969
185	0xbe7c15d6	-0.24617705
186	0xbe2283dc	-0.15870613
187	0xbc00e45f	-0.007866948
188	0xbd5dd5ad	-0.054158855
189	0xbe89cfe7	-0.2691643
190	0x3c37aed0	0.011211112
191	0xbe779227	-0.24176846
192	0x3e27f09f	0.16400383
193	0x3e77ef3f	0.24212359
194	0xbe5d644c	-0.21620291
195	0x3e891e8a	0.26781112
196	0x3d85d00d	0.06533823
197	0xbe39144d	-0.1807415
198	0xbdf61f5d	-0.12017701
199	0x3df7825a	0.120854095
200	0xbe8f399f	-0.2797365
201	0x3d4c242c	0.049839184
202	0x3e7e948c	0.24861354
203	0xbe303b2a	-0.1721007
204	0xbe6ceb9e	-0.23136756
205	0x3e255f02	0.16149524
206	0x3e07062a	0.13185945
207	0x3dcfa268	0.101383984
208	0xbe84391c	-0.2582482
209	0x3ea91c13	0.3302923
210	0x3cf88279	0.030335652
211	0xbe4ae70b	-0.19814698
212	0x3dd38351	0.10327781
213	0x3e96d36b	0.29458174
214	0x3e41d43a	0.18928614
215	0x3df484a9	0.119393654
216	0xbe8ac4b4	-0.27103198
217	0x3e986bb6	0.29769677
218	0x3db056d4	0.08610311
219	0xbc2ee0c0	-0.010673702
220	0x3e52455b	0.2053427
221	0x3dedca92	0.11610903
222	0x3dcd03c1	0.100104816
223	0xbd9b527d	-0.07584093
224	0x3e90c409	0.28274563
225	0x3e8e3097	0.27771446
226	0x3d9359f6	0.07194893
227	0x3dfff648	0.12498146
228	0xbe4303d8	-0.19044435
229	0xbe0201ba	-0.12695971
230	0xbe2a42e9	-0.16627087
231	0x3d042075	0.032257516
232	0x3e8d028b	0.27541003
233	0xbdf93b8a	-0.12169559
234	0x3d0913af	0.033466037
235	0xbe5334ac	-0.20625561
236	0x3e83344c	0.25625837
237	0xbe13cfbd	-0.14434715
238	0x3d95e36f	0.0731877
239	0xbc26963c	-0.010167655
240	0xbbb17606	-0.005415681
241	0x3e7dc91b	0.24783747
242	0x3dec907c	0.11550996
243	0x3e374962	0.17899087
244	0x3cc7ea65	0.02440376
245	0x3e89c557	0.2690837
246	0x3df832ae	0.121190414
247	0x3d5617bc	0.05226873
248	0xbe28dac9	-0.1648971
249	0x3db60e70	0.088894725
250	0xbe1379b6	-0.14401898
251	0x3e34fd08	0.17674649
252	0xbe92e488	-0.2868998
253	0xbdbe532d	-0.09293208
254	0xbe07b5b0	-0.13252902
255	0x3af0dcc4	0.001837634

fc1.bias f4 [64]
0	0x3e4fd53d	0.20296188
1	0xbdfb59de	-0.12273
2	0x3e151fa8	0.14562857
3	0xbd403403	-0.046924602
4	0x3e881010	0.26574755
5	0xbe40ce80	-0.18828773
6	0x3e18d591	0.14925219
7	0xbe63a9a8	-0.22232687
8	0x3e7e6a36	0.24845204
9	0xbcc4b46d	-0.024011815
10	0xbdc352ec	-0.095373005
11	0xbceb4080	-0.02871728
12	0x3e64a049	0.22326769
13	0x3d5ae6cc	0.05344276
14	0xbe2f3e50	-0.17113614
15	0xbe5dc1bd	-0.21655937
16	0x3d8be38d	0.06830511
17	0x3e905f2d	0.28197613
18	0x3e429986	0.19003877
19	0x3e47aaec	0.19498795
20	0x3e1b472a	0.15163866
21	0x3e4cf00f	0.2001345
22	0x3e79d32e	0.24396965
23	0xbe6600f6	-0.22461304
24	0xbcb9bad8	-0.022672102
25	0xbe8c9694	-0.27458632
26	0xbdcbb65e	-0.09946893
27	0x3de64900	0.112443924
28	0xbe214638	-0.15749443
29	0x3e36ae7e	0.17840001
30	0x3e35f5b6	0.17769513
31	0xbe59ef39	-0.21282662
32	0x3e30456e	0.17213985
33	0xbd745176	-0.059648
34	0x3e878ca4	0.26474488
35	0xbe634a11	-0.22196223
36	0x3e84273d	0.25811186
37	0xbd158523	-0.036503922
38	0xbdc831c6	-0.097751185
39	0xbe1bd52e	-0.1521804
40	0x3e618bf9	0.22026052
41	0xbd63eb6c	-0.055644438
42	0x3e32f1af	0.17475007
43	0xbe18ac70	-0.1490953
44	0xbe920133	-0.2851654
45	0xbc76fba0	-0.0150746405
46	0xbdd5a7e2	-0.10432412
47	0x3dbaef54	0.091276795
48	0xbdea0e14	-0.114284664
49	0xbd9238a5	-0.0713971
50	0xbdc73da8	-0.09728557
51	0x3cad2754	0.021136917
52	0x3e2ff23c	0.17182249
53	0xbe8ca7d6	-0.274718
54	0xbe30d9fa	-0.17270651
55	0x3e931144	0.2872411
56	0xbe7adf19	-0.24499168
57	0xbbc3f1f0	-0.005979769
58	0xbd470976	-0.048593007
59	0x3e3fef12	0.18743542
60	0xbda5096c	-0.08058438
61	0x3e5027a3	0.2032762
62	0x3cc1167f	0.023570297
63	0xbd2ab27f	-0.041674133

fc2.weight f4 [32, 64]
0	0xbd003198	-0.031297296
1	0xbecdde62	-0.40208727
2	0xbe911549	-0.28336552
3	0x3ddeb3a4	0.108741075
4	0x3e051b2e	0.1299865
5	0xbeaa3de2	-0.33250338
6	0xbea75dca	-0.32688743
7	0xbe51c605	-0.20485695
8	0xbe6472e6	-0.22309455
9	0xbebef9c0	-0.3729992
10	0xbedd2591	-0.43192723
11	0x3d4d3340	0.050097704
12	0x3e2e5d56	0.17027792
13	0x3e861493	0.26187572
14	0x3db0c9a4	0.0863221
15	0xbeac0687	-0.3359873
16	0x3e622eb2	0.22088125
17	0xbe49679b	-0.19668429
18	0xbec1d861	-0.37860397
19	0xbe5a0918	-0.21292531
20	0xbec6723a	-0.38759023
21	0xbcdd1a50	-0.026990086
22	0xbde8fbe8	-0.11376172
23	0xbe12d78a	-0.14340034
24	0x3ebe667b	0.3718756
25	0x3eced275	0.4039494
26	0x3d980cdc	0.07424328
27	0xbd6d5c68	-0.057949454
28	0xbe852010	-0.26001024
29	0x3e902c85	0.28158966
30	0x3d66c280	0.056337833
31	0xbe8779ee	-0.26460212
32	0x3d755ad0	0.05990106
33	0xbe334798	-0.1750778
34	0x3edb2b33	0.42806396
35	0xbebbac43	-0.36654863
36	0x3ec8db4b	0.39229807
37	0xbe8f7660	-0.2802
38	0x3e75d63a	0.24007502
39	0xbd4bcba8	-0.04975477
40	0x3eb5fb29	0.35543182
41	0xbece43e0	-0.4028616
42	0x3df63e6c	0.12023625
43	0x3e10847e	0.14113042
44	0x3eac1e1d	0.33616725
45	0xbeba3fe5	-0.36376873
46	0xbda2fb20	-0.079580545
47	0xbd0ed040	-0.03486657
48	0xbe6a257d	-0.22865863
49	0x3be3ae80	0.0069482923
50	0xbe4246b7	-0.18972288
51	0xbdd84be8	-0.10561353
52	0xbed5e2f8	-0.41774726
53	0x3ea0b355	0.3138682
54	0x3a696400	0.0008903146
55	0xbe85ce20	-0.26133823
56	0x3eb52cf5	0.35385862
57	0xbdd0e9f8	-0.10200876
58	0xbebd3f69	-0.3696244
59	0x3dc4ac84	0.09603217
60	0xbe95693e	-0.29181856
61	0x3d29a478	0.041416615
62	0x3eb2bd97	0.3491027
63	0xbe59f07b	-0.21283142
64	0x3e36902c	0.17828435
65	0x3ebdc907	0.37067434
66	0x3e495745	0.19662197
67	0xbe97885b	-0.29596218
68	0x3e413c6a	0.18870702
69	0xbed29321	-0.41127875
70	0xbd945fb9	-0.0724482
71	0x3e210ab6	0.15726742
72	0x3e334cbb	0.17509739
73	0xbd06589e	-0.032799356
74	0xbec578ca	-0.38568717
75	0xbd1f6560	-0.038915038
76	0x3ea9989e	0.3312425
77	0x3e5e3aa2	0.21702054
78	0xbeb0414c	-0.34424818
79	0xbe1761a5	-0.14783342
80	0x3e33fb6a	0.17576376
81	0x3eb459e3	0.35224828
82	0xbe7b8c0b	-0.24565141
83	0xbddee37b	-0.10883232
84	0xbe54e717	-0.20791279
85	0x3ecd3353	0.4007822
86	0x3ec528c1	0.38507655
87	0x3ec16f27	0.37780115
88	0x3e4a4af2	0.19755152
89	0x3d039280	0.032122135
90	0x3de40d5b	0.1113536
91	0xbec09644	-0.37614644
92	0xbeb09059	-0.3448513
93	0xbe8a4f93	-0.27013835
94	0xbe98dcbe	-0.29855913
95	0x3ea74a92	0.3267408
96	0x3c6c3348	0.014416523
97	0xbdab9abd	-0.08379123
98	0x3e6f1c22	0.23350576
99	0x3e5ef79f	0.21774147
100	0xbe95d63a	-0.29265004
101	0xbd96b427	-0.0735858
102	0x3e87cc8a	0.26523238
103	0xbeab414e	-0.3344826
104	0xbdec8d3c	-0.11550376
105	0x3ea5e0c9	0.3239806
106	0xbdc24c00	-0.09487152
107	0x3ec54d77	0.38535663
108	0x3ea50780	0.32232285
109	0x3ded0f1c	0.115751475
110	0xbe8ca746	-0.2747137
111	0xbd5edb98	-0.05440864
112	0xbc2f1980	-0.010687232
113	0x3da28644	0.079357654
114	0x3e0a5a36	0.13510975
115	0xbe5c75d9	-0.2152933
116	0x3e218c4e	0.15776178
117	0x3d895444	0.067055255
118	0x3e8b74f1	0.27237657
119	0x3ebfb1bf	0.37440297
120	0xbec7b70f	-0.3900685
121	0x3e974b51	0.2954965
122	0xbca6fbe5	-0.020383785
123	0x3c8e65de	0.017382558
124	0x3e3ab93a	0.18234721
125	0xbdde9262	-0.10867764
126	0x3ecd7735	0.4013001
127	0xbc067b2c	-0.008208077
128	0xbea707c7	-0.3262312
129	0x3e10ef46	0.14153776
130	0x3defc683	0.11707785
131	0x3ed8799f	0.4228029
132	0x3e85d13c	0.26136196
133	0xbe94a1ce	-0.29029697
134	0x3ecf93cd	0.4054245
135	0xbda7d619	-0.08195133
136	0x3e57046c	0.2099778
137	0x3e13d2fa	0.1443595
138	0x3d8bdbdc	0.06829044
139	0x3eb488f1	0.35260728
140	0x3dd567d4	0.10420194
141	0x3e707cc6	0.23485097
142	0xbe60cd9d	-0.21953435
143	0x3ebeb2fb	0.37245926
144	0x3eeeccc2	0.46640593
145	0x3e69c329	0.22828354
146	0xbd18572b	-0.037192505
147	0xbd857a5e	-0.0651748
148	0xbebf9058	-0.37414813
149	0xbe152fdf	-0.14569043
150	0xbe92b2c7	-0.2865202
151	0x3da8423f	0.082157604
152	0x3e889980	0.2667961
153	0xbbe9e580	-0.0071379542
154	0x3e2ad212	0.16681698
155	0x3e022156	0.12708029
156	0x3dbed38e	0.093176946
157	0xbed1c4c7	-0.40970442
158	0xbe5de909	-0.21670927
159	0x3e2494ff	0.16072462
160	0xbed2812e	-0.4111418
161	0x3eb1931d	0.3468255
162	0xbd5c780f	-0.053825434
163	0x3e9f3ecb	0.31102595
164	0x3e15fb21	0.1464658
165	0x3d8ca5fa	0.06867595
166	0xbd0b0132	-0.033936687
167	0xbe6454b9	-0.22297944
168	0x3eae910d	0.3409504
169	0xbe88642e	-0.2663893
170	0x3eae550d	0.34049264
171	0x3e03a9cd	0.12857743
172	0xbe7d15a4	-0.24715286
173	0x3eb91e71	0.36156037
174	0x3e5d4663	0.21608882
175	0x3e23558c	0.15950602
176	0x3e43da0e	0.1912615
177	0x3dd63b0f	0.10460483
178	0xbeabc8a9	-0.3355153
179	0x3ecdf42f	0.4022536
180	0xbdc71a49	-0.0972181
181	0x3ed82ec8	0.4222319
182	0xbd28a840	-0.04117608
183	0xbe74e5b4	-0.2391575
184	0xbe948e5b	-0.2901486
185	0x3ed43634	0.41447604
186	0x3ec421bc	0.38306987
187	0x3ec849a0	0.3911867
188	0xbe8b3724	-0.27190506
189	0xbe31b9e9	-0.17356075
190	0x3e95fc03	0.29293832
191	0xbc8bc3a4	-0.017061062
192	0xbe2f557c	-0.17122453
193	0xbea67ad2	-0.3251558
194	0xbe82f55e	-0.25577825
195	0x3dd349f4	0.1031684
196	0x3e2b2916	0.16714892
197	0xbeaefd96	-0.34177846
198	0xbe191394	-0.14948875
199	0xbd1be918	-0.038064092
200	0x3ebbe813	0.36700496
201	0xbe6a735d	-0.2289557
202	0xbdc0f6a8	-0.09422046
203	0xbd935bf4	-0.07195273
204	0xbe939273	-0.2882267
205	0xbe91428e	-0.2837109
206	0xbe35ca0a	-0.17752853
207	0x3e7443c2	0.23853973
208	0xbec02a81	-0.37532428
209	0x3edadecf	0.42748114
210	0xbe813484	-0.2523538
211	0xbeafe974	-0.34357798
212	0xbec3eaea	-0.38265163
213	0x3bf66700	0.007519603
214	0x3e4fc8ea	0.20291486
215	0xbe18f3ba	-0.14936724
216	0x3de7172c	0.112837166
217	0x3daaf614	0.08347717
218	0x3d87e3ec	0.066352695
219	0x3e39192e	0.18076012
220	0x3ed02257	0.406512
221	0xbdc1c678	-0.09461683
222	0xbe847a6f	-0.2587466
223	0xbe4d65a7	-0.20058309
224	0x3e2350f6	0.15948853
225	0x3e8083a5	0.25100437
226	0xbed46e7c	-0.41490543
227	0xbd728e80	-0.05921793
228	0xbeb2a532	-0.3489166
229	0xbe5b76c6	-0.21432027
230	0x3ec82f8f	0.39098784
231	0x3e92e9dd	0.2869405
232	0xbc8a51f0	-0.016884774
233	0xbe80308d	-0.2503704
234	0xbec41457	-0.38296768
235	0x3e3cd8e2	0.18442109
236	0xbe46214b	-0.19348638
237	0x3d258ac0	0.040415525
238	0x3eb5fdd1	0.3554521
239	0xbcece1b0	-0.02891621
240	0x3e762f6e	0.2404153
241	0x3d2c9280	0.0421319
242	0xbec228df	-0.37921807
243	0x3d7b5740	0.061362505
244	0xbeaeefc7	-0.3416731
245	0x3d82ba80	0.06383228
246	0xbdcba770	-0.099440455
247	0x3e039276	0.12848839
248	0xbd00bba0	-0.031428933
249	0x3e6c82ae	0.23096725
250	0xbce05e40	-0.027388692
251	0xbcdfa6b0	-0.027301162
252	0x3ea0930f	0.31362197
253	0x3d9f21e4	0.07770136
254	0x3e7af05e	0.24505755
255	0x3a8e7800	0.0010869503

fc2.bias f4 [32]
0	0x3cd899c0	0.026440501
1	0xbdff2529	-0.124582596
2	0xbda96ba5	-0.08272485
3	0x3da95610	0.08268368
4	0x3e0c0853	0.1367505
5	0x3d80a06a	0.062805966
6	0x3ca181bd	0.019715184
7	0x3d03f814	0.032219008
8	0x3d845a01	0.064624794
9	0x3db03ce5	0.08605365
10	0x3dc2bdd8	0.09508866
11	0xbd4e40d7	-0.050354805
12	0x3d6b5bb4	0.0574605
13	0xbd6609b9	-0.056161616
14	0x3d7d8173	0.06189103
15	0x3e11ad12	0.14226177
16	0xbdc2e711	-0.09516729
17	0xbcb22180	-0.02174449
18	0xbde4a4eb	-0.11164268
19	0xbdd16342	-0.1022401
20	0x3d3ce38f	0.046115454
21	0x3d8250d6	0.063630745
22	0x3dcbbd2a	0.099481896
23	0x3dd2683c	0.102737874
24	0xbc68f3b0	-0.014218256
25	0x3d729cea	0.059231676
26	0xbdb0e556	-0.08637492
27	0xbccc5928	-0.024944857
28	0xbdd60094	-0.10449329
29	0x3d3834a0	0.044972062
30	0x3d2b6699	0.04184589
31	0x3dab3042	0.08358814

fc3.weight f4 [3, 32]
0	0x3cf88da8	0.030340984
1	0xbdb1f9b2	-0.08690204
2	0xbe163ea2	-0.1467233
3	0xbd9c1e45	-0.07622961
4	0xbce7baf0	-0.028287381
5	0xbe04cdcf	-0.12969135
6	0xbdecfea2	-0.11572005
7	0xbd3967b4	-0.045264915
8	0x3cc3f300	0.023919582
9	0x3e249891	0.16073824
10	0xbcdd5dc0	-0.027022243
11	0x3db5d006	0.08877568
12	0xbd6851aa	-0.056718506
13	0xbe10633c	-0.14100355
14	0x3d43003c	0.047607645
15	0xbd870153	-0.065920494
16	0xbd526310	-0.051364005
17	0xbda3ae9b	-0.07992288
18	0xbd14b87c	-0.03630875
19	0xbd3364f4	-0.04379745
20	0xbd42c054	-0.0475467
21	0x3c60d610	0.0137229115
22	0x3e2c93eb	0.16853301
23	0x3db71876	0.089402124
24	0xbd8bc3bf	-0.06824445
25	0x3d3065b8	0.043065757
26	0xbda1f9e7	-0.07908993
27	0xbd911748	-0.07084519
28	0x3e1633f7	0.1466826
29	0xbd3e0a58	-0.046396583
30	0x3d9726aa	0.073804215
31	0xbdb32abf	-0.087483875
32	0xbd984fa3	-0.074370645
33	0xbda3262e	-0.079662666
34	0x3dda976a	0.10673411
35	0xbe338a98	-0.17533338
36	0x3da07484	0.078347236
37	0xbd5b6b53	-0.05356915
38	0xbe01e06c	-0.12683266
39	0x3e32c537	0.17458044
40	0x3c9c194b	0.01905503
41	0xbe04885c	-0.12942642
42	0x3e42b880	0.19015694
43	0xbb8e4327	-0.0043415013
44	0x3e28b14a	0.1647388
45	0xbc246ca7	-0.01003567
46	0x3e2752d0	0.16340184
47	0x3e570616	0.20998415
48	0x3cb916bb	0.022593847
49	0x3da2d5a2	0.079509035
50	0x3dffcd37	0.124903135
51	0x3d5ec835	0.05439015
52	0x3c4a37d3	0.012342411
53	0x3b8a42cf	0.00421939
54	0xbdb9fe5f	-0.090817206
55	0xbd55db81	-0.05221129
56	0xbe150463	-0.14552455
57	0x3d8d0cb4	0.068871886
58	0xbe25e6b7	-0.16201292
59	0xbb61e62c	-0.0034469469
60	0x3d957398	0.072974384
61	0x3cfc7ba8	0.030820683
62	0x3db5a01e	0.088684306
63	0x3dd2c230	0.102909446
64	0xbcd15a60	-0.02555579
65	0x3e2933f3	0.16523723
66	0x3dfff45a	0.12497778
67	0x3d6433a4	0.05571331
68	0x3ce84028	0.028350905
69	0x3e287abb	0.16453068
70	0x3d6f72e8	0.058459193
71	0xbd4f9e10	-0.05068785
72	0x3ccb2098	0.024795815
73	0x3e15ea61	0.1464019
74	0xbe0d1764	-0.13778454
75	0x3bed92c0	0.00725016
76	0x3c041920	0.008062631
77	0xbe0988f9	-0.13431157
78	0x3cf00fa0	0.029304326
79	0x3d072a1c	0.032999143
80	0x3d9439f8	0.07237619
81	0x3e19d59f	0.15022896
82	0x3ba1e9c0	0.0049411952
83	0xbde209c9	-0.110370226
84	0xbd185084	-0.03718616
85	0x3e31362d	0.17305823
86	0x3db66f06	0.08907895
87	0x3cf56500	0.029955387
88	0xbd40624c	-0.046968743
89	0x3b896e80	0.004194081
90	0xbe0bfee6	-0.13671455
91	0x3e336fcb	0.17523114
92	0x3ddbdbaa	0.10735257
93	0xbcaac568	-0.020846084
94	0xbd24d324	-0.040240422
95	0x3e198945	0.1499377

fc3.bias f4 [3]
0	0x4473a494	974.57153
1	0x4473a582	974.58606
2	0x4473a494	974.57153
