exploration36/Qeval.pt (torch, 14167 bytes, 6 tensors)

fc1.weight f4 [64, 13]
000000 de ca 22 be be 8e 3b 3e dc 67 d0 3d 49 fd 8c 3e
       -0.158977 0.1831617 0.101760596 0.2753699
000010 b0 78 b9 bd 7e 7f 22 be 44 13 c6 3d 10 9e b1 bc
       -0.090562224 -0.15868947 0.096716434 -0.021681815
000020 32 c9 53 3e 0a 9a ee bd fb 66 7f be 7d ee 21 be
       0.20682219 -0.11650474 -0.24941628 -0.15813632
000030 fd 40 8a be 80 aa 8a bc 90 e8 7f be 6d 93 4e be
       -0.27002707 -0.016927004 -0.2499106 -0.20173426
000040 a0 96 20 3c 5c 11 21 3e 58 f4 02 3d 2a c7 12 be
       0.009801537 0.15729278 0.031971306 -0.14333788
000050 00 76 cd 3a 68 74 2e 3d 18 4f 1c be 04 2f 07 be
       0.0015675426 0.042591482 -0.15264547 -0.13201529
000060 fd fa 12 be 12 2b 0d 3e 9c ad 4a be e9 df 1e be
       -0.14353557 0.13785961 -0.19792789 -0.15515102
000070 96 63 13 3e f2 aa 66 3e f0 90 88 3c bb 0d 15 be
       0.14393458 0.22526148 0.016670674 -0.14556019
000080 8a 5c 51 3e 54 a8 4c be 48 f4 9c bd b8 93 d5 3d
       0.20445457 -0.19986087 -0.076637805 0.10428566
000090 92 ae 09 3e 5a ab 08 be 28 48 39 3e 18 31 34 3e
       0.134455 -0.13346615 0.18093932 0.17596853
0000a0 60 ad 0f bd 40 ac 34 bd 6a 93 38 3e 06 1d 4f 3e
       -0.035077453 -0.044109583 0.18024984 0.20225915
0000b0 30 6f 0d bd 2a f7 0c 3e bc 89 b8 3d 0d 2e 8c 3e
       -0.034529865 0.1376616 0.09010646 0.27378884
0000c0 3a 6f 15 be 0c 45 2b 3e 90 0f c7 bd 66 85 25 3e
       -0.14593211 0.16725558 -0.09719765 0.16164169
0000d0 8e b8 68 3e 6c bc 9b 3d 85 35 8d 3e 0c 06 99 3d
       0.22726652 0.07604298 0.27579895 0.074718565
0000e0 74 84 f5 3d 49 3e 89 be 08 60 26 bd 41 13 13 be
       0.11988154 -0.26805332 -0.040618926 -0.14362814
0000f0 a4 2b 25 be 0b a2 83 3e a4 68 f9 3d 97 48 80 3e
       -0.16129929 0.25709566 0.12178162 0.25055382
000100 8c 40 22 be be 31 56 3e 1c 7b 5a bd d0 08 32 3d
       -0.15844935 0.20917413 -0.053340062 0.043465436
000110 de 8b 20 3e e2 f0 34 3e 54 77 b5 3d 90 cc 82 bd
       0.15678355 0.17670015 0.08860651 -0.063866735
000120 dd 8b 5f be 7b 08 8d be 59 27 11 be 7c 01 59 3e
       -0.21830697 -0.27545533 -0.14175166 0.21191972
000130 8e cb 7e 3e 0c 56 52 3e 1c 77 d7 3d d4 9e bb 3d
       0.24882337 0.20540637 0.10520765 0.091611534
000140 16 bb 73 3e 07 9d 69 be fa 7e 7a be bc c5 27 3e
       0.23801836 -0.22813807 -0.244625 0.16384023
000150 24 1a 2c 3e 8e 50 05 be 7c 07 a1 3d e4 7a ff 3d
       0.16806847 -0.1301901 0.07862756 0.124746114
000160 ce 70 6c 3e 60 89 40 bc ed 6b 86 3e c6 ef 68 3e
       0.23089907 -0.011751503 0.26254216 0.22747716
000170 c6 7c 89 be 64 4b e4 3d dc d2 d6 3d 84 4e 20 3e
       -0.26853007 0.11147192 0.10489437 0.15654951
000180 00 9c 5a bc e2 8b 2f 3e f8 77 17 3d 2e 23 6d 3e
       -0.013342857 0.17143205 0.036979645 0.23157951
000190 b9 e0 8a 3e b0 ae 88 bc 26 b5 88 be d5 db 35 be
       0.27124575 -0.01668486 -0.26700705 -0.1775964
0001a0 ce e8 3e 3e 57 7c 08 be d0 57 db bc 3c 3a c4 3d
       0.18643495 -0.13328682 -0.02677527 0.0958142
0001b0 60 18 11 3e 76 1f 7c 3e b6 37 3d 3e 98 18 60 be
       0.14169455 0.24621376 0.18478283 -0.21884382
0001c0 10 a4 93 3c b8 26 56 be 64 8b 90 3d cc d4 af bd
       0.018022567 -0.20913208 0.07057837 -0.0858551
0001d0 c0 38 83 bd c2 e4 ff bd de 2a 4b 3e ac 3c 56 be
       -0.064073086 -0.12494804 0.19840571 -0.20921582
0001e0 3a 34 6e 3e c4 7a 32 be 5f 46 56 be be f3 26 3e
       0.2326211 -0.17429644 -0.20925282 0.16303918
0001f0 04 cd 17 bd 00 44 91 3d 20 db e1 bd 10 e1 a3 3c
       -0.037060753 0.07093048 -0.11028123 0.02000478
000200 c6 0d 0f 3e 62 6e 53 3e c4 5d b0 3d 70 0a 9a 3d
       0.13970098 0.20647576 0.086116344 0.07521522
000210 6c da d3 3d ac 1f 77 be a8 64 80 bd ee 6d 13 3e
       0.10344395 -0.24133176 -0.06269199 0.14397404
000220 28 29 2a bd bf e0 7f be 5a ca bf bd f8 a3 0a 3e
       -0.041543156 -0.24988078 -0.093647674 0.13539112
000230 00 52 1b bc fd a1 76 be 3f 59 7a be 40 83 af 3d
       -0.00948 -0.24085231 -0.24448107 0.08569956
000240 80 63 51 3b 28 66 c5 3d 70 55 82 bc 36 78 78 3e
       0.0031950176 0.096386254 -0.01590988 0.24264607
000250 0c 00 5c be 06 8c 23 3e 4b 98 85 3e 26 3e 42 3e
       -0.21484393 0.15971383 0.26092753 0.1896902
000260 50 84 84 bc f0 f8 2a bd 50 47 a8 3d b8 5d 62 be
       -0.016176373 -0.04174131 0.08216727 -0.22106063
000270 d0 f2 c1 3c e2 d1 83 be 24 36 61 be e8 fd 5a 3d
       0.023675352 -0.25746065 -0.2199331 0.0534648
000280 b0 ac be 3c 84 f8 e5 bd 3e 47 0d 3e 38 52 01 3d
       0.023275703 -0.11229041 0.13796708 0.03157255
000290 d9 b2 81 3e 8d 77 03 be 66 d4 42 be f2 80 1b be
       0.25331762 -0.12838574 -0.19026336 -0.15185907
0002a0 a4 8f 2a 3e 78 29 17 3d b8 de 22 be 44 88 ba bd
       0.16656357 0.036904782 -0.15905273 -0.09108022
0002b0 4a 31 6a be 4a 9e b9 bd 90 a2 7e be 43 6c 67 be
       -0.22870365 -0.09063394 -0.248667 -0.22599892
0002c0 34 a8 92 3d d9 da 8b 3e 98 8a a8 3d 82 9f a9 bd
       0.071609885 0.27315405 0.0822956 -0.08282377
0002d0 11 b2 83 3e 98 3e 2f bd 76 89 79 be b2 1d 0b 3e
       0.2572179 -0.042784303 -0.24368843 0.13585547
0002e0 a0 0c e8 3d f6 23 75 3e a8 36 27 3e 04 e0 2b 3e
       0.11330533 0.239395 0.16329443 0.16784674
0002f0 b0 1e 82 3c e6 e7 05 be 42 86 57 be cc 8f 9b bd
       0.015883774 -0.13076743 -0.21047309 -0.075957865
000300 00 34 45 3e 31 2d 80 3e a2 ac 11 3e 33 dc 36 be
       0.19258118 0.25034478 0.1422601 -0.17857437
000310 1c b4 9f 3d e3 15 83 3e 56 fb 66 be 66 0a 54 3e
       0.07798025 0.25602636 -0.22556815 0.20707092
000320 60 db 14 3d 74 12 7d bd 2c 2b 13 bd 80 9e 06 be
       0.036342025 -0.061785176 -0.035929844 -0.131464
000330 5e fa 7a 3e c3 29 8c be b8 1b e7 bd 3c b0 0c 3e
       0.2450957 -0.27375612 -0.11284584 0.13739103
000340 e8 3a 7c be 83 94 17 be c7 a9 80 3e 64 f4 6c be
       -0.24631846 -0.14802746 0.2512953 -0.23140103
000350 b4 54 5a be ef 03 82 3e b0 30 65 3d bf b6 84 3e
       -0.21321374 0.25393626 0.055954635 0.25920674
000360 7e 48 a0 bd 06 d1 6c 3e 5a e4 ee bd 92 c6 c0 bd
       -0.07826327 0.23126611 -0.11664648 -0.09412874
000370 d2 e9 30 3e 02 68 46 be fc 46 5e bd 94 43 8d 3d
       0.17276695 -0.19375613 -0.054266915 0.06897655
000380 6e 0f 2b 3e 10 15 ab bc de 40 39 3e 58 58 eb bc
       0.16705105 -0.020884067 0.18091151 -0.028728649
000390 50 ec cf bc e6 9b 58 be e0 f5 e3 3c 70 a1 39 3e
       -0.025381237 -0.2115322 0.027827203 0.1812799
0003a0 52 b3 3c 3e e8 ee c6 3d 06 ea 18 3e be f7 35 be
       0.1842778 0.097135365 0.14933023 -0.17770287
0003b0 e8 fa 12 bd 40 86 f6 bd a2 f4 36 be 26 cf 36 3e
       -0.035883814 -0.12037325 -0.17866758 0.17852458
0003c0 3f d0 2d be a0 06 15 be c0 ab 6c 3d 61 8c 70 be
       -0.16973971 -0.14553308 0.05778098 -0.2349105
0003d0 6a 37 46 3e 70 21 18 3d 26 be 7e 3e fe 48 3e be
       0.19357076 0.037141263 0.24877223 -0.18582532
0003e0 fa a5 ab bd 6d e8 82 3e 16 f7 7b 3e 4a 8c 37 be
       -0.08381267 0.25567952 0.24605975 -0.1792461
0003f0 48 ac ff bc 80 6b af 3b 9c dc 88 be 0f 47 80 3e
       -0.03121008 0.005353391 -0.26730812 0.25054213

fc1.bias f4 [64]
000000 d4 6a ce 3d e0 6d d8 3d dd 6e 81 3e 39 68 71 be
       0.100789696 0.10567832 0.25279894 -0.23574914
000010 0c 4d 35 be 04 f0 88 3d 24 98 19 be 56 98 88 be
       -0.17705172 0.06686404 -0.14999443 -0.26678723
000020 a8 49 96 bd bb 7d 87 3e c6 bf 44 3e a8 06 b8 3d
       -0.073382676 0.26463112 0.19213781 0.089856446
000030 48 02 0b 3e 36 5b ca bd 80 02 fa 3b 10 55 9d 3c
       0.13575089 -0.09880678 0.0076296926 0.0192056
000040 bc 7d 98 bd 8e 09 ce bd 64 d4 83 3d fd 5b 5f be
       -0.07445857 -0.10060416 0.06436995 -0.21812434
000050 67 ca 45 be a2 dd 8c bd 10 35 c5 bc 2c c1 e4 bd
       -0.19315492 -0.068782106 -0.024073154 -0.11169657
000060 80 fe 66 3b 80 05 66 be 28 6d 88 be 30 69 86 3c
       0.0035246909 -0.22463036 -0.2664578 0.01640758
000070 80 8f ad 3b e7 c5 69 be 80 e8 40 bd 98 7a 60 3e
       0.0052966475 -0.228294 -0.04709673 0.21921766
000080 a6 af 4b be 10 0f 5d 3d b0 70 89 bd d3 e3 8c 3e
       -0.19891223 0.053969443 -0.067109466 0.27517566
000090 28 8c 4e be 02 92 73 3e b0 a3 f2 bc 70 86 32 bd
       -0.20170653 0.23786166 -0.029619068 -0.04358524
0000a0 fc df 93 bd 40 bf 66 bc 84 84 0b 3e be 86 0c 3e
       -0.07220456 -0.0140836835 0.1362477 0.13723275
0000b0 58 e5 1f bd 3e e5 3f 3e 26 8f 0b 3e 28 2f aa 3d
       -0.03903708 0.18739793 0.13628826 0.083097756
0000c0 da 36 28 3e 5f cb 03 be 7e 5b e6 bd 80 09 21 3d
       0.16427174 -0.12870549 -0.112479195 0.0393157
0000d0 f8 9d 59 bd cc d2 33 be e4 58 c3 3d aa b0 d0 bd
       -0.053129166 -0.17560881 0.09538439 -0.10189946
0000e0 30 44 95 bc d0 95 f0 3d 3a 28 79 3e 2c a0 e4 bd
       -0.01822099 0.117473245 0.24331751 -0.11163363
0000f0 f0 12 ca 3d 4a 87 be bd df 87 87 3e 50 f2 44 3e
       0.09866893 -0.09303148 0.2647085 0.1923306

fc2.weight f4 [32, 64]
000000 d0 3f e8 3c 08 d0 de bc 00 54 a0 ba e0 67 cf bb
       0.02835074 -0.027198806 -0.0012232065 -0.0063295215
000010 10 ff c6 bd 38 64 18 3d b0 e4 81 3d 6a b3 89 bd
       -0.09716618 0.03720495 0.06342447 -0.06723674
000020 06 59 d1 bd 4a 68 e5 bd 90 36 3a bc f2 7f bd bd
       -0.10222058 -0.11201532 -0.011365548 -0.09252919
000030 54 57 44 bd d4 be b5 3d 40 2d 30 3c b2 45 a3 bd
       -0.047934845 0.08874288 0.010752976 -0.07972278
000040 ee 65 f0 3d 7c 06 33 bd a0 27 ea 3c 7a d5 cc bd
       0.117381915 -0.043707356 0.028583348 -0.10001655
000050 ea 60 d0 bd 00 09 84 ba b0 1c 69 3c f2 52 d1 3d
       -0.10174735 -0.0010073483 0.014228031 0.10220899
000060 54 14 d5 bd 22 4c be bd f0 6d 9a 3d c0 fe 7c bd
       -0.10404268 -0.09291865 0.075405 -0.061766386
000070 9c 7a df bd 6c 27 f5 3d f2 ef a6 3d 4a 85 de 3d
       -0.10912058 0.1197041 0.08151235 0.108652666
000080 00 11 18 3d c8 00 96 3d 38 0e c6 3c 0e cb 88 bd
       0.037125587 0.07324368 0.024176702 -0.066793546
000090 d0 fe 53 bc d8 53 d3 3c a4 cb 3f 3d cc 84 a1 bd
       -0.01293917 0.025796816 0.046825066 -0.07886657
0000a0 0c 13 89 3d a8 5c 0b bd c0 bd 87 3d 04 e4 77 3d
       0.06693086 -0.03402391 0.06627989 0.060520187
0000b0 d4 0f cf bd 30 43 1d 3d 20 cb 61 bc 62 9d ad bd
       -0.10110441 0.038394153 -0.013781339 -0.08477284
0000c0 d6 77 af bd c0 e1 2c 3c 22 ec 96 bd 62 14 8f 3d
       -0.08567779 0.01055187 -0.073692575 0.069863096
0000d0 50 3a 2a 3c 28 bf d7 bd 34 eb 07 bd 9a 3f 96 bd
       0.010389879 -0.10534507 -0.03318329 -0.0733635
0000e0 40 50 3e 3c 24 f1 3d bd 80 4b 4e bb d2 7c a1 bd
       0.011615813 -0.046372548 -0.0031478107 -0.07885136
0000f0 20 7e 76 3c 90 fb 7f 3c 3e ed d1 3d 2e df ea bd
       0.015044719 0.015623942 0.102503285 -0.114683494
000100 48 bf 93 bc 2c b1 7d 3d b0 da 89 bc b0 b6 ae 3d
       -0.018035546 0.061936542 -0.016827911 0.085309386
000110 e0 ab 5c bc 5a 5a 8e bd 14 79 b0 bd 08 26 81 bd
       -0.013468713 -0.06950827 -0.08616844 -0.06306082
000120 98 ea d3 3c c0 08 93 3b be 70 e2 bd fa 81 d5 bd
       0.025868699 0.004487127 -0.1105666 -0.10425182
000130 bc ae 08 3d 40 0a 23 bd 58 12 93 bc 40 70 cf bc
       0.033369765 -0.039804697 -0.017953083 -0.02532208
000140 0c a7 07 3d 60 70 77 3c 70 d3 5a 3c 78 23 cb bc
       0.033118293 0.015102476 0.013356075 -0.024797186
000150 e8 a4 ff 3c 3c 5a be bd 12 4d a6 3d 60 a2 ad bb
       0.031206563 -0.092945546 0.08120169 -0.0052988976
000160 d2 12 c8 3d 88 a2 a8 bc 80 44 c5 3a c4 60 fc 3d
       0.09769215 -0.020585313 0.0015050322 0.12323144
000170 d0 31 84 3c 84 3b 67 bd ec b3 6c bd 20 3d b1 bd
       0.016137034 -0.056453243 -0.057788774 -0.08654237
000180 d0 e9 15 bc 6c ab 8e bd b0 dd 47 3c c8 b6 97 3d
       -0.0091499835 -0.0696629 0.0121988505 0.0740791
000190 74 23 67 3d be f3 ae 3d 66 eb b9 3d e2 27 d7 3d
       0.056430295 0.08542584 0.09078102 0.10505654
0001a0 dc 6e 0c 3d d8 68 22 bd c0 dc 28 3c c2 0f a0 3d
       0.03428541 -0.039650768 0.010306537 0.078155056
0001b0 92 e9 c5 bd 0c ca 54 bd e8 28 eb 3d de f7 ae bd
       -0.096636906 -0.0519505 0.114824116 -0.08543371
0001c0 14 11 ed bd 0c 67 56 3d b2 7a ff 3d 34 28 41 bd
       -0.11575523 0.052344367 0.12474574 -0.04715748
0001d0 6c 72 7b 3d 34 d6 21 bd 90 6d c3 bc ce 70 9e bd
       0.061388418 -0.03951092 -0.023855954 -0.077363595
0001e0 4c bb 63 3d 20 f4 d4 3b 44 dd 37 bd 84 22 3b bd
       0.055598542 0.0064988285 -0.04488875 -0.045687214
0001f0 80 f1 38 bb 90 cb b1 bc bc 47 02 3d 50 b4 19 3d
       -0.0028220117 -0.021703511 0.031806692 0.037525475
000200 98 67 05 3d a8 76 93 3d 24 c2 05 3d 50 c4 98 bd
       0.032569498 0.07200366 0.03265585 -0.07459319
000210 b6 69 c9 bd 20 0b 6f bd e8 42 d0 3c 36 31 a2 bd
       -0.09834616 -0.05836022 0.025422528 -0.079195425
000220 08 b1 04 bd 20 77 d2 3b da fc e2 bd cc ab 1d bd
       -0.032395393 0.006422892 -0.11083384 -0.038493916
000230 50 be 80 3d c8 1f 8c bd da 69 bc bd c0 39 d0 bc
       0.06286299 -0.06841999 -0.09199877 -0.025418162
000240 38 04 79 3d 3e 8a 9c bd 6c ac 8d 3d 2e c7 a8 bd
       0.06079504 -0.07643555 0.069176525 -0.082411155
000250 a2 45 e0 bd ac db 8e bd 50 29 b4 bc 38 f9 37 bd
       -0.109507814 -0.06975493 -0.021992356 -0.044915408
000260 ce d4 ff 3d 84 a7 2f 3d 64 32 ba bd 18 83 92 bc
       0.12491761 0.042884365 -0.090916425 -0.017884776
000270 48 aa b8 3c 3e 04 83 3d 24 a1 6c 3d 0c 28 1a bd
       0.022542134 0.063972935 0.057770863 -0.037635848
000280 88 9d a4 bd 5e 7b e5 bd 30 7a d3 bd 54 37 75 3d
       -0.08037859 -0.11205171 -0.1032604 0.059867218
000290 cc 38 2f bd 60 8c 82 3b 80 2b d6 3a 8c 07 0a bd
       -0.042778775 0.003984019 0.0016339868 -0.033698604
0002a0 6c 6e 27 3d 24 30 96 3d 34 a8 fb bd a8 d1 08 3d
       0.04087679 0.07333401 -0.122879416 0.03340307
0002b0 10 99 3c 3c f0 a3 1f bd e8 f7 b9 bc 98 4b 3b 3d
       0.011511102 -0.038974702 -0.022701219 0.04572639
0002c0 d4 5c 97 bd 6e 24 a5 bd 40 0c b2 3b c8 e4 26 bd
       -0.073907524 -0.08063589 0.005433589 -0.040745527
0002d0 c8 ad fd bc 58 dd ef bc 7e 6c cf 3d 1e ae ee 3d
       -0.030966654 -0.02928035 0.10128115 0.11654304
0002e0 44 95 d7 bd b8 d2 9d bd c6 8a e6 bd 40 2d a1 3b
       -0.10526517 -0.07706207 -0.11256938 0.0049187243
0002f0 ae 72 99 bd 48 e6 60 3d e2 18 87 3d 22 12 a2 bd
       -0.074925765 0.054907113 0.06596543 -0.07913615
000300 1e d3 bd bd 8a 7d d0 bd 4e 5b d3 bd a8 b2 dc 3c
       -0.09268783 -0.10180195 -0.10320149 0.026940659
000310 50 9f 3e bc 5c d2 db 3d fe d3 d5 3d 14 11 d7 bd
       -0.011634663 0.10733482 0.10440825 -0.10501304
000320 d6 2d 9a bd 80 82 61 bc b0 e5 3b 3d e0 a4 c8 bc
       -0.07528274 -0.013764024 0.045873344 -0.024492681
000330 02 97 c2 3d f8 a9 9c bd 60 7f 1b bc 10 a4 b9 3c
       0.09501459 -0.076496065 -0.009490818 0.022661239
000340 b0 92 64 3d 10 20 52 bc f8 b8 9e bc 30 a5 fe 3d
       0.055803955 -0.012825027 -0.01937531 0.12433851
000350 48 a2 da bd b4 0d cf bd fa dd 99 bd 06 e9 dd bd
       -0.10675484 -0.101100355 -0.07513042 -0.10835461
000360 2a d7 d5 bd 60 3a e3 3d da 86 b3 3d f8 94 3b bd
       -0.1044143 0.110951185 0.08765955 -0.045796365
000370 60 ee b2 3c 40 f5 b6 3d 0c cc 0e 3d 00 50 4d bd
       0.021842182 0.089334965 0.034862563 -0.050125122
000380 30 6d 0d 3c 28 9c 22 3d bc ca 9b 3d a6 27 e1 bd
       0.008631989 0.039699703 0.07607028 -0.109938905
000390 3c cb a3 bd ae b2 df 3d 98 e9 02 bd ea 24 ad bd
       -0.07997748 0.10922752 -0.031961054 -0.084543064
0003a0 30 31 7c bc 80 fb 0c 3b 40 9d 64 3b ee e4 c3 bd
       -0.015392587 0.002151221 0.0034883767 -0.09565149
0003b0 48 ee 78 bd 68 0b 18 3d 6c 10 39 3d 0c e1 55 3d
       -0.060774118 0.037120253 0.045181677 0.052216575
0003c0 d0 0b 66 3d 70 d3 2c 3d 20 0b c4 bb bc 23 42 3d
       0.05616361 0.04219383 -0.0059827715 0.04739736
0003d0 f4 b7 f1 bd 0e 40 ff 3d 2c 7d 33 bd b6 dd af bd
       -0.118026644 0.12463389 -0.043820545 -0.0858721
0003e0 c0 7a f2 3d 3c dc bc bd 40 62 43 3c 40 6d 8c bc
       0.11839819 -0.09221694 0.01192528 -0.017141938
0003f0 20 48 d3 bd 60 6a e4 bd f0 fd b2 3c 26 93 b9 bd
       -0.10316491 -0.11153102 0.021849602 -0.090612695

fc2.bias f4 [32]
000000 38 ef b9 bd 34 c8 63 3d 3c ed 23 3d 80 8d 66 bc
       -0.090788305 0.05561085 0.040021166 -0.014071822
000010 a0 19 08 bc 32 a7 aa 3d 30 37 a2 3c 04 bd e7 bd
       -0.008306891 0.08332671 0.019801706 -0.11315349
000020 78 5c ae bc 14 55 bb bd c4 0a 13 bd c0 06 e2 3d
       -0.021284327 -0.09147087 -0.03589894 0.11036444
000030 80 8b c0 3c a0 f2 8e 3b 34 89 10 3d b0 ef c7 3d
       0.023504019 0.0043624192 0.035287097 0.09762514
000040 bc 80 42 3d d4 c5 f5 3d 00 73 37 3c bc 91 26 bd
       0.047486052 0.12000623 0.011196852 -0.040666327
000050 52 70 db 3d 10 12 f7 bd de f7 86 bd 82 c1 d6 bd
       0.10714783 -0.12063992 -0.06590246 -0.104861274
000060 7c f5 27 bd 42 83 e3 bd ca 2c f1 bd f0 3f 86 bc
       -0.041005597 -0.1110902 -0.11776121 -0.01638791
000070 c4 8b e9 3d 66 59 d2 3d 70 c7 07 3d 20 02 0c bd
       0.11403611 0.10270958 0.033149183 -0.034181714

fc3.weight f4 [3, 32]
000000 66 27 ce 3d fe 3a 04 be 70 9e e7 3c 8c f2 48 3d
       0.100661084 -0.12913129 0.028273791 0.049059436
000010 e0 50 96 3b 40 6f a9 bc d3 4a 86 bd a0 50 0c 3d
       0.004587278 -0.020682931 -0.0655724 0.034256577
000020 99 16 06 3e af 58 85 bd 7a 3b e2 3d 40 96 72 3d
       0.13094558 -0.06511056 0.110465005 0.05922532
000030 a9 a7 d3 bd 4f 22 1e be bb 6e 0d 3e 48 6e 21 be
       -0.10334713 -0.15442775 0.13811772 -0.15764725
000040 30 d2 30 be 06 cc b5 bd 2d e1 22 be 47 00 d6 bd
       -0.1726768 -0.08876805 -0.1590621 -0.10449272
000050 e7 62 15 be 21 57 02 3e f0 85 3a 3c 80 26 af 3a
       -0.1458851 0.1272855 0.011384472 0.0013362914
000060 3b cc a9 bd 40 4a 9d 3c f7 e3 2f 3e c7 18 ab bd
       -0.08290907 0.019200444 0.17176805 -0.08354335
000070 a3 b9 2d be 00 f8 09 39 7c a1 19 3d 4d ee 0a 3e
       -0.16965346 0.00013157725 0.03750752 0.13567467
000080 cf 36 11 3e a6 f9 fe 3d a8 fd c6 bc 50 ef a0 bd
       0.14181064 0.124499604 -0.024290875 -0.07858145
000090 2f b9 0a 3e 1e 49 a6 3d 60 77 35 bd a0 42 2b be
       0.13547204 0.08119415 -0.044303298 -0.16724634
0000a0 b5 53 0c 3e a5 18 12 be 34 b2 86 3d 68 7a 2e bd
       0.13703807 -0.14267214 0.06576958 -0.042597204
0000b0 c0 84 fb 3c e0 ff 1d 3d 93 05 b4 bd 98 75 9f bd
       0.030702949 0.0385741 -0.08790126 -0.07786101
0000c0 1e 6d 08 be 2c 9a 23 bd 56 ea f1 3d 9d 5a 22 3e
       -0.13322875 -0.03994195 0.11812274 0.15854879
0000d0 d9 31 33 3e 08 67 8a bc fb be cf bd f7 c7 2c 3e
       0.17499484 -0.016894832 -0.101438485 0.16873156
0000e0 a8 96 75 bd 20 24 02 3d 0b a0 9f bd b8 96 29 bd
       -0.05995813 0.031772733 -0.07794198 -0.041403502
0000f0 42 4c c4 3d c8 24 ee bd 11 5a 30 3e fb 3f 13 3e
       0.095848575 -0.11628109 0.17221858 0.14379875
000100 b2 cd 2f be f0 28 a6 bd 03 32 cb bd 24 3f 15 be
       -0.1716831 -0.08113277 -0.09921648 -0.14574867
000110 49 9d 05 3e df f8 00 be 76 2b 98 3d 24 a7 1d bd
       0.13048281 -0.12594937 0.074301645 -0.038489476
000120 4a be ec bd c0 55 2e bc d0 4a 88 bd f4 40 93 3d
       -0.11559732 -0.010640562 -0.06654894 0.07190123
000130 6a b2 e7 3d 3f 1d 0c 3e b8 b2 3b 3d 82 56 f7 3d
       0.11313327 0.13683031 0.045824736 0.12077047
000140 48 14 b5 3c 4a 49 f1 3d dd ee 90 bd 5d 1f 29 be
       0.022104397 0.11781557 -0.070768096 -0.1651587
000150 b8 6d 5a bd e0 0e b2 bc 00 58 69 bb 4b 2b 8c bd
       -0.053327292 -0.021735609 -0.003560543 -0.06844195
000160 0f 6d 0c be 4d 2e ba bd bd 90 82 bd 28 4d 9f bd
       -0.13713478 -0.090908624 -0.06375263 -0.07778388
000170 c6 1f 99 3d 71 2a 21 3e 7e 85 66 bd d5 86 2f 3e
       0.074767634 0.15738846 -0.05627965 0.17141278

fc3.bias f4 [3]
000000 bd e1 1b 3e 14 70 9b bd 90 2c d6 3c
       0.15222831 -0.075897366 0.026144296
