exploration1/Q_next.pt (torch, 14167 bytes, 6 tensors)

fc1.weight f4 [64, 13]
-0.21230352 0.14046276 -0.01911652 -0.045853585 0.1902501 -0.010826379 0.085399 -0.119973466
0.14276567 0.055622727 0.017050743 -0.12844485 -0.24913736 -0.11246756 -0.1440441 0.21722022
-0.17652322 -0.23752597 -0.18617181 0.11345285 -0.0881107 -0.20294088 0.14996359 -0.105651185
-0.1454666 0.27429643 -0.12390074 -0.27049458 -0.19144224 0.1580301 0.19755024 0.232308
0.20753604 -0.015956342 -0.22813818 -0.22017145 -0.18194756 -0.079800114 -0.0076948404 0.12753093
-0.22987919 0.03306192 -0.15826043 0.07891983 -0.1225581 0.20988399 0.19202131 -0.14901115
0.15759596 -0.05691114 0.16179928 -0.06859149 -0.26847255 0.20341533 0.124584556 -0.21660918
0.24861601 -0.16765223 -0.029978812 0.19705617 -0.03601958 -0.1010201 0.19511968 -0.090150565
-0.16106203 0.19924739 0.08002457 -0.15722306 0.19454941 0.25908163 0.083198786 -0.066584796
0.055002958 -0.13229695 -0.13094324 -0.12399031 0.19908234 -0.18524683 0.006198764 0.025398463
0.16801447 -0.110550985 -0.15000735 -0.1054346 -0.27322745 -0.22815275 0.1953694 0.23579124
0.2035524 0.13517827 0.13457832 0.18417546 -0.18043563 0.08650154 -0.06326972 0.2753897
0.097028434 -0.107209206 0.14262888 0.2252796 -0.0909286 -0.08025208 -0.03264688 -0.18396363
0.24209282 0.186165 0.1894131 -0.08450471 0.0535658 0.22749516 -0.01854825 0.17578095
0.21847987 0.07452473 -0.17376281 -0.12695909 0.028269827 -0.23487271 0.22066909 0.06654295
-0.17743754 0.23383275 -0.16923134 -0.09665549 0.1430673 0.24022606 -0.15437616 -0.25491112
0.11164409 -0.052962556 0.1167351 0.13886532 0.016551226 0.254469 -0.14421216 0.13945192
0.064638466 0.18650836 0.19285157 -0.14967822 -0.10476719 0.020050257 0.26560608 0.13695729
-0.14385277 -0.16300811 0.11710316 0.062990904 0.15490943 -0.10105693 -0.19122908 -0.17265749
0.08732355 0.22539112 0.26684007 -0.15798753 0.054793626 -0.0014587343 -0.013032228 -0.045406997
-0.14151269 0.0024805963 -0.037851185 -0.13797009 -0.0155751705 0.24328002 0.0025331378 -0.0063013434
0.018534005 0.2753218 -0.049836606 -0.06630859 0.01564452 -0.223468 0.00861612 0.039079934
0.05848518 0.2584146 -0.022848845 -0.01636228 -0.21598485 -0.18270572 -0.16697305 -0.085180044
0.040121794 0.20901245 0.08891621 -0.15822169 -0.21942721 0.12195712 -0.2595106 -0.18164125
0.14843145 0.03774172 -0.16383156 0.26535293 -0.15026332 -0.093375266 -0.2325822 -0.13295223
-0.26596004 -0.16607256 -0.24222295 -0.05138877 0.13213733 0.18507135 0.095228225 0.08552423
-0.26837847 -0.22906488 -0.072846636 -0.10867296 -0.18426922 -0.24828477 -0.042006508 -0.081341565
-0.2204637 -0.13230747 -0.25825992 0.005541533 0.2365807 0.17315766 0.1819641 -0.12733011
0.05234295 -0.22731614 0.020198196 -0.21366861 -0.12513481 0.20439863 0.056892246 0.048181802
-0.033792958 0.040071577 -0.009941101 -0.17085949 0.049612224 0.22926095 -0.26221997 0.19884968
0.103260756 0.23400393 0.17623863 -0.24975176 0.15227985 0.2746561 -0.1466469 0.13872868
0.07119545 0.1485909 -0.060529158 0.22135049 -0.15232773 -0.23429306 0.14713484 -0.093215376
00000000: 1866 59be 78d5 0f3e 409a 9cbc f8d0 3bbd
00000010: ecd0 423e 2061 31bc ace5 ae3d a6b4 f5bd
00000020: 2a31 123e a8d4 633d 00ae 8b3c 0c87 03be
00000030: dd1d 7fbe 6455 e6bd 4c80 13be fa6e 5e3e
00000040: 81c2 34be 023a 73be d3a3 3ebe f859 e83d
00000050: 6273 b4bd bccf 4fbe 0e90 193e a65f d8bd
00000060: 32f5 14be 9570 8c3e acbf fdbd 447e 8abe
00000070: 6f09 44be a4d2 213e 9c4a 4a3e 26e2 6d3e
00000080: 5484 543e e0b6 82bc 0e9d 69be a074 61be
00000090: 7650 3abe 3e6e a3bd 0025 fcbb 7897 023e
000000a0: 7365 6bbe f06b 073d 060f 22be b8a0 a13d
000000b0: beff fabd d4eb 563e 3ca1 443e 6196 18be
000000c0: d660 213e a81b 69bd b6ae 253e b279 8cbd
000000d0: 3c75 89be 1c4c 503e 3026 ff3d ccce 5dbe
000000e0: 3295 7e3e 07ad 2bbe 2096 f5bc 18c9 493e
000000f0: 4489 13bd a0e3 cebd 74cd 473e dca0 b8bd
00000100: 72ed 24be 8207 4c3e ece3 a33d 15ff 20be
00000110: f637 473e 59a6 843e 2064 aa3d 9c5d 88bd
00000120: c84a 613d da78 07be fc15 06be a2ee fdbd
00000130: 3edc 4b3e 58b1 3dbe 001f cb3b 7010 d03c
00000140: fc0b 2c3e 8e68 e2bd 879b 19be 18ee d7bd
00000150: 78e4 8bbe e0a0 69be ea0e 483e 4273 713e
00000160: 0a70 503e 2c6c 0a3e e6ce 093e 7e98 3c3e
00000170: 1ec4 38be b827 b13d 8e93 81bd e1ff 8c3e
00000180: d8b6 c63d 8090 dbbd 4e0d 123e b2af 663e
00000190: c638 babd 345b a4bd bcb8 05bd f660 3cbe
000001a0: 2ee7 773e 0aa2 3e3e 82f5 413e ce10 adbd
000001b0: d067 5b3d 7ef4 683e 80f2 97bc ecff 333e
000001c0: 30b9 5f3e 6ca0 983d e1ee 31be 9001 02be
000001d0: 2096 e73c 7982 70be 14f7 613e ac47 883d
000001e0: 30b2 35be da71 6f3e fb4a 2dbe 50f3 c5bd
000001f0: 3c80 123e d2fd 753e c914 1ebe b683 82be
00000200: a8a5 e43d 44ef 58bd d012 ef3d b632 0e3e
00000210: 7096 873c c349 823e 5aac 13be 7ccc 0e3e
00000220: 2c61 843d 0cfc 3e3e e27a 453e 3f45 19be
00000230: 2e90 d6bd 7040 a43c 85fd 873e 883e 0c3e
00000240: 244e 13be 99eb 26be c8d3 ef3d 6001 813d
00000250: 94a0 1e3e f0f6 cebd 8ed1 43be 20cd 30be
00000260: b0d6 b23d eecc 663e 439f 883e 7cc7 21be
00000270: 486f 603d 0033 bfba 2085 55bc b0fc 39bd
00000280: b4e8 10be 8091 223b d809 1bbd 0848 0dbe
00000290: 002f 7fbc 661e 793e 0003 263b 807b cebb
000002a0: a0d4 973c fbf6 8c3e 7821 4cbd cccc 87bd
000002b0: f028 803c ccd4 64be a02a 0d3c 4812 203d
000002c0: 288e 6f3d eb4e 843e 802d bbbc 300a 86bc
000002d0: 222b 5dbe 3517 3bbe fcfa 2abe e072 aebd
000002e0: c056 243d 5c07 563e b419 b63d de04 22be
000002f0: 87b1 60be a8c4 f93d 93de 84be 2a00 3abe
00000300: 6afe 173e 1097 1a3d 76c3 27be 57dc 873e
00000310: a1de 19be 883b bfbd 072a 6ebe a124 08be
00000320: ea2b 88be ed0e 2abe 4b09 78be 087d 52bd
00000330: 024f 073e 5883 3d3e 0407 c33d 5427 af3d
00000340: e768 89be fc8f 6abe 9e30 95bd ee8f debd
00000350: 12b1 3cbe 5d3e 7ebe 040f 2cbd 6896 a6bd
00000360: 3cc1 61be 9c7b 07be a53a 84be c095 b53b
00000370: 3642 723e 3e50 313e cc54 3a3e d362 02be
00000380: 9065 563d 90c5 68be b076 a53c f2cb 5abe
00000390: 5723 00be e04d 513e d807 693d 485a 453d
000003a0: 7c6a 0abd 1822 243d 00e0 22bc caf5 2ebe
000003b0: 3036 4b3d 62c3 6a3e b241 86be 409f 4b3e
000003c0: 607a d33d ba9e 6f3e e677 343e edbe 7fbe
000003d0: 40ef 1b3e b99f 8c3e 9b2a 16be e40e 0e3e
000003e0: ecce 913d 3628 183e 6ced 77bd b4a9 623e
000003f0: cdfb 1bbe 85ea 6fbe 84aa 163e b4e7 bebd

fc1.bias f4 [64]
-0.26679915 0.23209205 -0.0608899 0.26330522 0.068442196 -0.1021276 -0.22824368 -0.097696304
-0.06427063 -0.045614272 0.05944833 -0.105676845 -0.09854248 -0.045203075 0.2092979 0.008911282
0.08598608 0.23807827 0.12848175 0.22773954 -0.17509082 0.09132987 0.271077 0.23314598
-0.086153015 0.16233501 0.087176085 -0.23658454 -0.27705398 -0.005360484 -0.13315761 -0.1277503
0.097432435 -0.026108772 -0.009327114 -0.17091694 -0.187229 0.17423972 -0.12995578 0.19852877
-0.09817 0.11350632 -0.19566044 -0.061175734 -0.03974171 -0.09811045 -0.19202289 0.11204073
-0.13025077 0.09765148 0.1304541 0.20305005 0.1957578 0.25764188 -0.10090685 -0.015763849
0.25047842 -0.02438569 0.13750678 -0.1432704 0.22489229 0.021596342 0.048986822 -0.13048142
00000000: e699 88be 8aa9 6d3e b067 79bd f1cf 863e
00000010: 6c2b 8c3d 4628 d1bd b6b8 69be 0015 c8bd
00000020: 52a0 83bd 08d6 3abd 1880 733d 1a6d d8bd
00000030: a4d0 c9bd dc26 39bd 3052 563e a000 123c
00000040: 7819 b03d caca 733e b890 033e 8e34 693e
00000050: 024b 33be 280b bb3d 9bca 8a3e d2bd 6e3e
00000060: fe70 b0bd 263b 263e 6089 b23d 3843 72be
00000070: 05da 8dbe 00a7 afbb 785a 08be fad0 02be
00000080: a88a c73d 10e2 d5bc c0d0 18bc da04 2fbe
00000090: f5b8 3fbe e66b 323e 2113 05be 204b 4b3e
000000a0: 5a0d c9bd 0076 e83d 365b 48be 6893 7abd
000000b0: 34c8 22bd 22ee c8bd a6a1 44be 9c75 e53d
000000c0: 7560 05be 80fd c73d c295 053e 5aec 4f3e
000000d0: bc74 483e a3e9 833e 40a8 cebd 3023 81bc
000000e0: b53e 803e 80c4 c7bc 94ce 0c3e 7ab5 12be
000000f0: 2a4a 663e d0ea b03c 68a6 483d ec9c 05be

fc2.weight f4 [32, 64]
0.037366748 -0.059223697 0.03814271 -0.049408168 -0.097135305 -0.11276755 -0.12484144 0.08336571
-0.035623953 -0.09878677 -0.11607273 -0.12389009 0.007521957 -0.06388493 -0.028283313 -0.06689389
0.06476268 0.03385307 -0.061182693 -0.06882222 0.09820303 0.00053556263 -0.109044746 0.020664826
0.117684975 0.0059862733 -0.08461422 -0.10134712 0.017012328 -0.0022647083 0.046092153 -0.020367548
-0.029667035 0.05548349 -0.098236516 -0.018290922 0.034149036 0.051579416 0.09876491 -0.012108013
0.029320449 0.110978216 -0.056081206 0.03020589 -0.09317131 0.0027596802 -0.01652968 0.031598434
-0.09928888 -0.030368388 0.117372796 0.06969294 0.07470088 -0.11580269 0.032375738 0.010650232
-0.08395292 -0.024552405 0.07646951 -0.08061233 0.11097005 0.10111004 -0.02134946 0.02349542
0.106403396 -0.051725417 0.023300454 0.09906624 0.010776073 -0.038249776 -0.118724525 -0.018524364
-0.013224438 -0.08696523 -0.08122665 0.042236075 -0.049672455 0.08271156 -0.03814496 -0.08480346
0.07522519 0.053718477 0.09768584 -0.07979527 -0.05313097 0.020210356 0.02863738 -0.049666435
-0.01684779 -0.013045773 0.02413249 0.102222055 0.09902638 0.064367995 0.009107769 0.011066794
-0.063474834 0.088030845 0.08977631 0.09101671 0.121673435 0.043332532 0.0481278 0.10054347
0.10011059 -0.06558433 0.115205914 0.09440991 -0.1118312 -0.0046391636 0.039600134 -0.10962057
0.061643243 0.031882003 -0.01023303 0.027801052 -0.06358217 0.09751247 -0.070589155 0.058113128
-0.066479504 -0.12436673 0.0112348795 -0.013506681 0.036698908 -0.10776283 -0.0969293 -0.023742601
0.08571048 -0.06646356 -0.036484823 -0.07333402 0.008198559 -0.012181371 0.023010015 0.057397097
-0.029046088 0.08649561 -0.049464777 -0.0152466 -0.026342988 0.0969688 0.04062058 0.0021050423
0.096200585 0.048709735 0.0987999 -0.06790204 0.036509797 0.09499337 0.034763813 0.11231054
-0.054739326 -0.08681552 -0.0067570508 -0.03940682 -0.0825599 -0.02070205 0.09184556 -0.034488723
-0.04040946 -0.0229 -0.044051856 0.094156146 -0.052862495 0.10785389 0.0018874109 -0.042773187
-0.0017539263 -0.025046349 0.062849745 -0.11211407 0.08585192 0.03811714 0.07006481 0.10667847
-0.0012724847 0.091251895 -0.021869615 -0.00547044 0.008904308 0.113820255 -0.1091937 0.010354131
-0.03865674 -0.11920741 0.07818876 0.05066167 0.035483256 -0.09258434 -0.08603215 0.1180094
-0.0880076 0.06628403 -0.06720148 0.07779433 0.10716227 0.087025985 0.088078275 0.10644901
0.07126586 -0.11422424 0.027993128 -0.051947176 0.01887013 -0.120552674 -0.06555942 0.10432148
0.0367468 -0.07478814 0.03672713 0.06083466 0.073522195 0.11193575 0.064895034 0.0060840696
0.016847923 -0.024132818 0.052084625 0.07763484 0.067092 0.10194588 -0.046236068 0.04257442
-0.09939447 0.12371901 0.004327774 0.123816386 -0.10057667 0.085616976 0.10715102 -0.027142897
0.05520256 0.110700846 -0.009998515 0.0062442124 0.029177949 -0.072545275 -0.07005167 0.005837217
-0.016214699 0.07918751 -0.0063727945 0.072335094 0.0043480545 -0.11477511 -0.07719585 -0.049967885
-0.067376465 -0.10564171 -0.00062686205 0.09472865 -0.049957693 0.005036056 0.10824275 -0.08790824
00000000: e00d 193d 8c94 72bd 883b 1c3d 3860 4abd
00000010: e0ee c6bd acf2 e6bd deac ffbd a4bb aa3d
00000020: 6cea 11bd b850 cabd 8ab7 edbd 16ba fdbd
00000030: c07a f63b 1ad6 82bd 68b2 e7bc aaff 88bd
00000040: 4ca2 843d 84a9 0a3d b49a 7abd aaf2 8cbd
00000050: ac1e c93d 0065 0c3a da52 dfbd 4849 a93c
00000060: d204 f13d 8028 c43b 384a adbd 148f cfbd
00000070: 705d 8b3c 806b 14bb 20cb 3c3d d8d9 a6bc
00000080: 4808 f3bc a842 633d 3a30 c9bd d8d6 95bc
00000090: dcdf 0b3d f044 533d 4245 ca3d b060 46bc
000000a0: 7031 f03c 8c48 e33d 68b5 65bd 5872 f73c
000000b0: 9ad0 bebd c0db 343b 4069 87bc 5c6d 013d
000000c0: f857 cbbd 20c7 f8bc 2661 f03d 2cbb 8e3d
000000d0: c6fc 983d f629 edbd 6c9c 043d 507e 2e3c
000000e0: 82ef abbd 2022 c9bc 0c9c 9c3d 1418 a5bd
000000f0: 4444 e33d c812 cf3d 10e5 aebc 7879 c03c
00000100: 06ea d93d 08de 53bd 98e0 be3c 3ee3 ca3d
00000110: 208e 303c ccab 1cbd d825 f3bd 68c0 97bc
00000120: 50ab 58bc d41a b2bd 285a a6bd bcff 2c3d
00000130: 5875 4bbd ae64 a93d e43d 1cbd 70ad adbd
00000140: aa0f 9a3d e807 5c3d 840f c83d b46b a3bd
00000150: dc9f 59bd 3090 a53c f098 ea3c 086f 4bbd
00000160: 6004 8abc f0bd 55bc 80b1 c53c cc59 d13d
00000170: 58ce ca3d 5ed3 833d c038 153c 8051 353c
00000180: 18ff 81bd 8449 b43d a4dc b73d f866 ba3d
00000190: ec2f f93d 747d 313d a821 453d bce9 cd3d
000001a0: c806 cd3d 1451 86bd 14f1 eb3d fc59 c13d
000001b0: c207 e5bd 2004 98bb c033 223d c080 e0bd
000001c0: a07d 7c3d b496 023d 70a8 27bc 08bf e33c
000001d0: 5e37 82bd 9eb4 c73d 0c91 90bd 0808 6e3d
000001e0: 6826 88bd fcb3 febd 8012 383c 204b 5dbc
000001f0: 9851 163d c2b2 dcbd de82 c6bd d87f c2bc
00000200: fa88 af3d 0c1e 88bd 1c71 15bd 2630 96bd
00000210: 4053 063c 6094 47bc 807f bc3c 3819 6b3d
00000220: 10f2 edbc 9c24 b13d 949b 4abd e0cc 79bc
00000230: 40cd d7bc 9497 c63d c461 263d c0f4 093b
00000240: d004 c53d dc83 473d 9a57 ca3d 3a10 8bbd
00000250: 4c8b 153d e28b c23d 8064 0e3d 1203 e63d
00000260: 5836 60bd 56cc b1bd 406a ddbb 0c69 21bd
00000270: 2a15 a9bd 5897 a9bc 8619 bc3d 0c44 0dbd
00000280: 6484 25bd c898 bbbc b86f 34bd f0d4 c03d
00000290: 5886 58bd 80e2 dc3d 0063 f73a f032 2fbd
000002a0: 00e4 e5ba 002e cdbc 5eb7 803d 109c e5bd
000002b0: 22d3 af3d b820 1c3d 247e 8f3d 3e7a da3d
000002c0: 80c9 a6ba 46e2 ba3d e827 b3bc 6041 b3bb
000002d0: 60e3 113c 981a e93d f2a0 dfbd 60a4 293c
000002e0: 8856 1ebd 0423 f4bd 6e21 a03d 9c82 4f3d
000002f0: e456 113d dc9c bdbd a031 b0bd eaae f13d
00000300: 543d b4bd ecbf 873d eea0 89bd a252 9f3d
00000310: e477 db3d ae3a b23d 6262 b43d f001 da3d
00000320: d6f3 913d 66ee e9bd d851 e53c 90c6 54bd
00000330: 8895 9a3c 52e4 f6bd 0444 86bd 80a6 d53d
00000340: d083 163d 862a 99bd 306f 163d c42d 793d
00000350: ce92 963d 923e e53d b0e7 843d e05c c73b
00000360: a804 8a3c 30b2 c5bc b056 553d 04ff 9e3d
00000370: 8867 893d 00c9 d03d 0862 3dbd 8462 2e3d
00000380: 548f cbbd 6460 fd3d 00d0 8d3b 7293 fd3d
00000390: 24fb cdbd f457 af3d fe71 db3d c85a debc
000003a0: 141c 623d 20b7 e23d d0d0 23bc 409c cc3b
000003b0: 9806 ef3c 9e92 94bd 4077 8fbd 2046 bf3b
000003c0: b0d4 84bc 102d a23d e0d2 d0bb 6c24 943d
000003d0: 207a 8e3b 360f ebbd dc18 9ebd 20ab 4cbd
000003e0: acfc 89bd ae5a d8bd 0054 24ba 1801 c23d
000003f0: 70a0 4cbd 8005 a53b 60ae dd3d 3c09 b4bd

fc2.bias f4 [32]
-0.10972698 -0.04355821 -0.04720503 -0.102538034 0.030716345 0.0011969954 0.022065952 -0.010217473
-0.04333061 0.11611453 -0.019107997 0.114420325 0.08232984 -0.10727665 -0.033310995 -0.10292767
-0.12283352 0.011518791 -0.09957929 -0.045388892 0.10340245 0.0030366927 -0.03585446 0.11445223
0.10928166 -0.12187168 0.09432253 0.01556313 0.016198367 -0.121865794 0.113043144 0.06532617
00000000: 8ab8 e0bd 186a 32bd 105a 41bd 76ff d1bd
00000010: d8a0 fb3c 80e4 9c3a a8c3 b43c 3067 27bc
00000020: 707b 31bd 74cd ed3d 6088 9cbc 3455 ea3d
00000030: 8c9c a83d dcb3 dbbd 1c71 08bd becb d2bd
00000040: 2490 fbbd 50b9 3c3c 3af0 cbbd b4e9 39bd
00000050: aac4 d33d 4003 473b 20dc 12bd ee65 ea3d
00000060: 10cf df3d dc97 f9bd 2c2c c13d 80fc 7e3c
00000070: 70b2 843c c694 f9bd 2a83 e73d bac9 853d

fc3.weight f4 [3, 32]
-0.13719308 -0.0011456609 -0.060385898 0.057742357 0.07114242 -0.0071614385 -0.027802765 0.057815015
0.050344348 0.14642413 -0.1575538 0.045611218 -0.12374395 -0.12645452 -0.14179325 -0.15731137
-0.16142255 -0.049399346 -0.0011156499 0.057012737 -0.00723958 -0.01846397 0.009783909 -0.0624403
-0.17427105 -0.05068542 0.11689128 0.091646895 0.07222623 0.10718657 -0.003932357 0.042686284
0.13008346 -0.08643218 0.14859857 -0.122546494 -0.08762026 -0.105620064 -0.0034515262 0.013728067
-0.0036458075 0.17636721 0.0046114773 0.10927226 0.09076156 -0.0049441904 -0.11637358 -0.07774367
0.005344957 0.033508405 -0.005844146 -0.012042895 -0.031786695 -0.07883582 -0.07852913 0.040519983
-0.021723375 -0.121502556 0.01725313 -0.109979905 -0.09262134 0.17090686 -0.03707014 0.035449594
-0.13598216 -0.09442116 -0.0514286 0.1396537 -0.11304292 -0.051553056 0.076367244 -0.118729144
-0.058986075 -0.10886482 0.025579304 0.08132319 -0.003293395 0.0005736202 0.0075671077 0.15157245
-0.0921568 0.121539935 0.038963497 0.09171571 0.0076830983 -0.038801864 -0.053499877 -0.06946445
0.01969792 -0.04033807 -0.10041016 0.038725212 -0.121987455 0.036639288 0.14407445 0.07761188
00000000: 587c 0cbe 002a 96ba 3457 77bd 4083 6c3d
00000010: 1eb3 913d 80aa eabb a0c2 e3bc 70cf 6c3d
00000020: e035 4e3d 35f0 153e c955 21be d4d2 3a3d
00000030: 786d fdbd 4b7d 01be 4032 11be 3b16 21be
00000040: f44b 25be f856 4abd 003b 92ba 3086 693d
00000050: 003a edbb c041 97bc b04c 203c 66c1 7fbd
00000060: 1c74 32be 849b 4fbd b264 ef3d 5eb1 bb3d
00000070: 58eb 933d a284 db3d 00db 80bb d0d7 2e3d
00000080: 9934 053e 5b03 b1bd 392a 183e a8f9 fabd
00000090: 4072 b3bd 554f d8bd 0033 62bb b0eb 603c
000000a0: 80ee 6ebb 9b99 343e e01b 973b 22ca df3d
000000b0: 32e1 b93d e002 a2bb 4655 eebd 1338 9fbd
000000c0: c024 af3b 1c40 093d 4080 bfbb 904f 45bc
000000d0: c432 02bd ad74 a1bd e1d3 a0bd 48f8 253d
000000e0: 38f5 b1bc 55d6 f8bd 7056 8d3c 253d e1bd
000000f0: 42b0 bdbd 3502 2f3e dcd6 17bd 9833 113d
00000100: e83e 0bbe e25f c1bd cca6 52bd 6101 0f3e
00000110: 0c83 e7bd 4c29 53bd 6e66 9c3d 4428 f3bd
00000120: 629b 71bd 85f4 debd b08b d13c c68c a63d
00000130: 00d6 57bb 005f 163a 80f5 f73b cf35 1b3e
00000140: b4bc bcbd eee9 f83d 3098 1f3d 72d5 bb3d
00000150: 80c2 fb3b b4ee 1ebd b022 5bbd 6143 8ebd
00000160: 885d a13c 8839 25bd d8a3 cdbd 549e 1e3d
00000170: 8fd4 f9bd 1413 163d 4188 133e faf2 9e3d

fc3.bias f4 [3]
-0.14254901 -0.1512273 0.10079701
00000000: 5ef8 11be 54db 1abe aa6e ce3d
