training1/Qeval.pt (torch, 14167 bytes, 6 tensors)

fc1.weight f4 [64, 13]
00000000: 922f 3cbe deca 40be d36f ee3d ff6c 24bb
00000010: 9ce8 933e 866a 3ebe db24 c8bc f8be 85be
00000020: fba3 803e 416c 4b3e 96df 4d3b 8710 273e
00000030: 45a2 d0bd 1778 893e 5003 41be 889f 71be
00000040: c83b 193d 75c8 77be 0029 1e3b 2885 b73d
00000050: 6815 0e3d 57ba 8cbe 8e65 8abd cb07 1dbe
00000060: c821 71bd f1ed 9a3e 40c6 a6bb 07bd 20be
00000070: 74f9 4ebe 4072 28be e309 8fbe bfb3 993e
00000080: 99ca 6dbe 9e0a 98be e2c7 983e 4d34 733e
00000090: c5e7 573e e833 92be 0f45 1bbe 96aa afbd
000000a0: 601a 85be e8b4 5f3d c086 88be 8185 08be
000000b0: 445a 69be c697 16be 0a47 6c3e e245 98be
000000c0: e2ee 6c3e ea5a 733e dcd6 89be eb43 8cbe
000000d0: c2c0 863e b2a1 5a3e d700 e9bc f9d1 98bd
000000e0: cd15 5e3d 354d 11be acfc 4d3e e958 98be
000000f0: d5ba 9d3b 9361 6a3e aca7 53be ac3a 253d
00000100: 2773 04be ceeb 30be 652f 303e 66af f93d
00000110: a442 cd3c 0ee4 913e 12ac 5dbe 9742 f23d
00000120: fd0c 02bc 242e 8cbe 1d01 733e 1d45 2fbe
00000130: ad7b 313d 1e16 793e cc04 01be ef34 003e
00000140: c0fa ddbd 9748 20be dc3c 53be 6b84 bbbd
00000150: ccf8 2ebe 1ed2 6c3c bb60 8a3c dcba 81bd
00000160: 469f 9ebd 1a20 5abe f966 8a3d 1d7b 853e
00000170: bce0 c43c 4f11 f33d 1488 aa3d c551 2c3e
00000180: 625f 063e e25a 683e 0fea a53d 5d5e 703e
00000190: 1c63 793e 5281 973e 9a2f d6bd 5afa 873e
000001a0: 053b 0fbd 35f6 c4bd f39b 7dbe 22c2 7f3e
000001b0: e503 633e e815 353d 0d21 96be 63d8 b4bc
000001c0: f73e 04be 32bd 6abe 8d6b 073d 052a 163e
000001d0: bace 4e3e 1d50 85be 00e6 233e ed9d df3d
000001e0: 7c57 223e 5d7f 9abe c437 bd3d 147b 463e
000001f0: 15b0 59be e4c0 d6bd 2e76 33be 53e9 8b3d
00000200: 4cf6 7a3c d548 bc3d 708c c5bb 1d38 4c3e
00000210: 0862 a73d aee6 21be 212f 25bd 14ae f0bd
00000220: 4e77 5ebe 7662 ce3d 994f 3bbe 4c60 553d
00000230: 09e7 88be 4005 1b3d 06af b9bd a05d f0bd
00000240: 1fc7 d83c 6a57 7b3e 01dd 203e bd45 78bd
00000250: f744 2abd b51a 903e 7ef0 133e 2493 33be
00000260: 7f26 8abe 70fe c9bd 9f5c 983e 9336 9ebe
00000270: cf9a 8d3e 1005 2b3e 01d8 693e 6ff4 06be
00000280: ffc6 2dbe ef49 2bbe b20c 05be 5bcf 7abe
00000290: b45f 8b3e e744 a63d 1eb5 833e a772 973d
000002a0: 4806 86be 9e20 41be e3e1 5e3e a41e 023e
000002b0: e425 b9bd 4e2f 413e 28e2 95be 6f5d 433e
000002c0: dcda 823e d956 34be c0f7 46be 3f26 3dbb
000002d0: 4ba1 003d 1c3a 993d 66fd 343e 2ea0 5a3e
000002e0: 6610 23be 009c e53c 0623 9abd 6835 863d
000002f0: c315 863e 5434 68bd 6c16 91bd 7e29 49be
00000300: 0f8f 893e 60ad 93bc d3c4 31be 4b89 26be
00000310: cd9a 993e ac22 fb3c ce1b 803e d314 2b3e
00000320: f64d d43d ea75 5f3e 7b52 043e ac9d 513e
00000330: 9db3 f43c d3d0 c23c b641 84be c230 dbba
00000340: abc9 07be 0204 633e 7cac b33d eacc 093e
00000350: 88ee 7ebe 16c9 dbbd 0970 59be 0056 78bb
00000360: b2c7 3abe 97d5 1fbe 0087 e4bb 7833 90be
00000370: c637 8dbd 1f6f 943e 80c4 c5bc 18e2 353d
00000380: 8252 553e 3014 c83d e634 603e d3e8 99be
00000390: e68e 04be ce34 95be f0cc ae3c 2e9f 8abe
000003a0: 1a9a e0bd 30b1 2e3d e588 903e 0a8f 333d
000003b0: 06dc 79be 2d8e 3e3e 370f 4f3d eed0 7dbe
000003c0: ebea 72be f07a 973e edd5 dbbd 0f4f 96bd
000003d0: 970d 923e dced 953e 9bcf fbbd 3855 7b3e
000003e0: 0b02 5fbe 4476 663e 1807 b8bd da3c 3b3c
000003f0: bf4d 24bd 787d 38bd b772 69be 309d 34be
-0.18377522 -0.18827388 0.116424225 -0.002508938 0.28888404 -0.18595323 -0.024431637 -0.2612226
0.25125107 0.19865514 0.0031413785 0.16314898 -0.101872005 0.26849434 -0.1884892 -0.23596013
0.037410527 -0.24197562 0.0024133325 0.089609444 0.034688383 -0.27485916 -0.06757651 -0.15335004
-0.058870107 0.3025966 -0.005089551 -0.15697108 -0.20212346 -0.16449833 -0.2793723 0.30019948
-0.23221816 -0.296956 0.29839998 0.2375042 0.21084507 -0.28555226 -0.15163063 -0.085774586
-0.25996685 0.054615885 -0.26665306 -0.13332178 -0.2278834 -0.14706334 0.23073974 -0.29740816
0.23138002 0.2376515 -0.26921737 -0.27395567 0.26318938 0.21350744 -0.028442783 -0.07461924
0.05422001 -0.14189608 0.20115918 -0.29755333 0.004813532 0.22888784 -0.2066943 0.040339157
-0.12934552 -0.17277452 0.1720558 0.12191658 0.02505619 0.28494304 -0.21647671 0.11829107
-0.007937667 -0.27378953 0.23730893 -0.17116208 0.043330837 0.24324843 -0.12599486 0.12520193
-0.108388424 -0.15652691 -0.20628685 -0.09156116 -0.17087096 0.014454393 0.016891828 -0.06334469
-0.07745223 -0.21301308 0.06757922 0.2607049 0.024032943 0.11868536 0.08326736 0.16828068
0.13122323 0.22690919 0.08101284 0.23473497 0.24354213 0.2959085 -0.10458298 0.2655819
-0.034968395 -0.09617273 -0.24766521 0.249764 0.22169454 0.044210345 -0.2932209 -0.022075837
-0.12914644 -0.22923735 0.033061553 0.14664467 0.20196047 -0.26037684 0.16005707 0.10918794
0.15853685 -0.30175295 0.09239152 0.19382888 -0.21258576 -0.1048601 -0.1752555 0.068316124
0.015317511 0.09193579 -0.0060287043 0.1994328 0.08172995 -0.15810654 -0.04032815 -0.11751953
-0.21725199 0.10077374 -0.18292083 0.05209379 -0.26738766 0.037846804 -0.09066586 -0.117366076
0.026462136 0.24545065 0.15709306 -0.060613383 -0.041569676 0.28145376 0.14447209 -0.17536598
-0.26982495 -0.09862983 0.29758164 -0.30901012 0.27657172 0.1670115 0.22836305 -0.13179182
-0.16970442 -0.16727422 -0.12993124 -0.24493162 0.27221453 0.08118611 0.2572412 0.07394915
-0.26176667 -0.18860099 0.21765856 0.12707001 -0.0904043 0.18865702 -0.29274106 0.19078611
0.255576 -0.17611255 -0.19430447 -0.0028861908 0.03140382 0.074817866 0.17674789 0.21350166
-0.15924224 0.028028488 -0.075262114 0.06553155 0.26188478 -0.05669053 -0.07084355 -0.19644734
0.26866958 -0.018027008 -0.17360239 -0.1626331 0.30000916 0.030656181 0.25021213 0.16707163
0.10366432 0.21822324 0.12922089 0.20470303 0.029870803 0.023781216 -0.25831383 -0.0016722905
-0.13260524 0.22169498 0.08773133 0.13457075 -0.2489568 -0.107317135 -0.21234144 -0.0037893057
-0.1824024 -0.15608822 -0.006974101 -0.28164268 -0.068954036 0.2899103 -0.02414155 0.044405073
0.20832255 0.097694755 0.21895179 -0.30060443 -0.12945136 -0.2914185 0.021337956 -0.2707457
-0.109668925 0.042649448 0.28229442 0.043837585 -0.24400339 0.18608923 0.05055162 -0.24786732
-0.23722427 0.2958598 -0.107341625 -0.07339298 0.28525993 0.29283035 -0.12295457 0.24544227
-0.21778123 0.22506052 -0.08985728 0.011428082 -0.040113207 -0.04504153 -0.22797666 -0.17638087

fc1.bias f4 [64]
00000000: 5db8 983c d5c2 883e 6cb5 043e 912c 74be
00000010: 56eb 5fbc f0da 74be f13f 253e fc59 383d
00000020: 0648 e4bd 0844 a83d 5d0f 81be 5555 cb3d
00000030: d34b 703e 907d ca3c fc76 823d 7824 46bd
00000040: 28a8 a6bd 20cd 43bc c10b f03d c775 20be
00000050: 1b98 6e3e ba03 283e 52b9 143e 8dc1 ce3d
00000060: 97c6 ba3d 4023 eabc 55c0 6b3e 2359 44bd
00000070: 7a41 cebd 11de 4abe 6e89 063e b19b 9b3d
00000080: 80ba 56bc 73c4 08be 1858 733d b47c 2b3e
00000090: 60b1 57bd 342f 983d 8e7e 82be b108 413e
000000a0: d92c e3bd 1c83 05bb 6c40 4bbe 2f28 d03d
000000b0: 9f48 6a3d a052 db3d fbfb 8f3d ec21 933d
000000c0: 7a65 263e 637f ffbc fc4b 823e f4f1 2cbe
000000d0: 7907 55be d3cd fabd bf2c 29bd 60a7 b13d
000000e0: 10f5 423d 7372 833e 4946 37be ce81 213e
000000f0: b983 373e 676f 97bd f191 0a3e 658b 833e
0.018642599 0.26711145 0.12959832 -0.23845126 -0.013666948 -0.23911643 0.16137673 0.04500769
-0.1114655 0.08216101 -0.25207034 0.09928385 0.23466425 0.024718076 0.06370351 -0.048374623
-0.08137542 -0.011950761 0.11720992 -0.15669928 0.23300211 0.16407672 0.14523819 0.10095511
0.09119909 -0.028581262 0.23022588 -0.04793657 -0.100710824 -0.19811274 0.13138363 0.07598055
-0.0131059885 -0.1335619 0.059410185 0.16746789 -0.052659392 0.07430878 -0.2548718 0.18850972
-0.110925384 -0.0020372337 -0.19848794 0.101639144 0.057198163 0.10709119 0.07030483 0.071842045
0.16249648 -0.031188672 0.25448596 -0.16889173 -0.20803632 -0.12246289 -0.04130244 0.086745024
0.04759699 0.25673255 -0.17897905 0.15772173 0.17921342 -0.07394295 0.13532235 0.25692287

fc2.weight f4 [32, 64]
00000000: 6837 663e a8fc 103d c722 cc3e 18b8 393d
00000010: da38 24bd 86ba 8d3e 8c3a 2cbe aa19 25be
00000020: 3a24 b7be acc0 fb3d 85c0 28bd 0abc 6bbd
00000030: 1d25 0f3d b91f a4bd 1571 73be 3072 293d
00000040: 1ab5 213e d24d 733e da5f a3bd 40e3 79b7
00000050: 1257 4b3e 4080 dd3b c26e 5f3e 4052 1abe
00000060: 9e09 d83e 4d54 c5bd 724d 28be 7272 1bbe
00000070: 8f3d 8abe 34e4 b93d 4d54 92bd f16e bcbe
00000080: effb 883e 0abe 1bbd 40ca 4b3c 9943 a43e
00000090: cab6 643e 97f2 c6be 1d6e d63e 90f9 1f3e
000000a0: f8f5 dfbd 1f04 0f3e fd5c 9b3e 0820 ad3e
000000b0: f97d 3c3e 7bd1 d73e 185f 95be deba 7a3e
000000c0: 2a0b 773e 120b c43e 35ca b93e 8a84 82be
000000d0: 6903 033b 35d1 24be 66fd 4b3e 567b f7bd
000000e0: 85a4 60be 76cd 993c 1e92 3f3e 6eec 1a3e
000000f0: 7acc d2be afde 4e3d 794b 4ebe a9e6 9c3e
00000100: a193 bdbe 2b48 993e fe32 543e 79b1 873e
00000110: 9820 d33c 0745 543e 28e5 013d 8e6a b4be
00000120: 2be6 99be efde d0be 787d ca3e ee3f 53be
00000130: 29f1 803e 7f7f 873d 90d0 19bd 1348 acbe
00000140: 999d c33e 234f 8b3e e6a0 063e 23f6 e43d
00000150: a8dd 623e a0b5 4c3c 00ff ee3b 1e49 50be
00000160: 578f 88be c2ae 2abe 6f7e 1d3e 5cf6 73be
00000170: 55d5 c83e 3222 ac3e 1d9d bdba 2ccb acbe
00000180: b11e 6cbe 6fa3 0b3e 601c 573c 5c81 eabd
00000190: d8a1 3e3e 3135 31be 0b78 043e 8f35 153e
000001a0: e13d bf3d 03f5 5f3e 0622 1b3e 5872 763e
000001b0: bc99 5fbe 2471 43be 8f0d 2f3e a094 d5bd
000001c0: 6fcd dc3e 04e3 a63d 01d4 48be fd1b a63e
000001d0: f256 4d3d b585 903e 5d2b fa3d db0b bfbc
000001e0: 3dcc 813e fc9c 6b3e fac0 85be ec3d c0be
000001f0: ef4d 80be 73c0 bb3e fdc0 bf3e 6ce6 95be
00000200: 4f10 b33d e137 bf3e 21a4 b33e 37f4 ad3e
00000210: 62ea 263e 92e7 aebd 6658 1ebe afd7 9dbe
00000220: fc0b 633e 17ea d2be 8339 3c3e c8bc 87be
00000230: 1c2f a13d 0f3c 883e bc2b 863d 8840 afbd
00000240: a161 833e fd28 c0be dddf 6c3e ede5 cf3d
00000250: 485e c93e 9147 d73e e43e 9cbd 556b c63e
00000260: 0ccf 81bd eaa5 be3e 99ca 34be 7c8f adbd
00000270: 94fe 00be e571 f43d 2785 953e 3b39 643e
00000280: 0021 433d 51f8 3f3e 3264 403e 400f 42be
00000290: 6e7f 713e c39a b8be f04e 763c e3d1 433e
000002a0: 7c22 42be ba8d 8a3e 72c4 5d3e 5e99 8abe
000002b0: 3540 97bd f7dd 9d3e 0ae1 c03d fac2 37be
000002c0: 0ef6 743e 9a1c 4cbe c03f 85be 2ef0 c2be
000002d0: cc67 1e3e 8216 c7be d0bd fabd 3e94 27bc
000002e0: 4b9f 8a3d 4558 ccbe 00c1 24bb 52e6 463e
000002f0: 356c 203d dc32 94be a0e7 87bd cfc5 dc3e
00000300: 2064 153d 9f41 89be 6da0 873e f5b3 bb3e
00000310: 0e0e 143e 0610 9abe f8d0 5a3d 7be4 9abe
00000320: b0bf b23c 247f 51be 028a 683e 9d5e 833e
00000330: a89b 3bbe 4532 d2be 05b4 b83e 724c 96be
00000340: 848f 8dbd 40ec 3bbd 1014 1e3d ee57 703e
00000350: a05b 95be ef6b b83e 0eec 733e 5c81 823d
00000360: 519f 8b3e 3bd9 b33e 22bc 0fbe dc33 aa3d
00000370: 006e 3dbc ce1b 393e a998 b2be 62b3 05be
00000380: 9cf8 923d b0d4 743d e019 6cbc 97b3 6ebe
00000390: 5a54 9abe 46c3 76be 5ee1 a1be 2b73 953e
000003a0: 5133 a0be 7e9b a6be e39b ca3e 8019 cabd
000003b0: 080e 2dbe 52f9 013e 40de c6bc 94c8 8e3d
000003c0: f27c 133e 7876 b0be dabb 3c3e ffcf a6be
000003d0: 3547 6fbe 0eaf b1be 59bb bbbe d166 a4be
000003e0: 9473 e2bd 1104 af3e 5f6b a93e 6843 36be
000003f0: 0f20 ce3e ab44 68be 1123 c6be 33d8 a83e
0.22482073 0.0353972 0.39870283 0.04534158 -0.04009328 0.2768137 -0.16819209 -0.16123071
-0.35769826 0.122926086 -0.041199226 -0.057552375 0.034947503 -0.08013863 -0.23773606 0.041368663
0.15791741 0.23760155 -0.079772666 -1.4894467e-05 0.19857433 0.0067596734 0.21819595 -0.15070438
0.42194837 -0.0963522 -0.16435793 -0.15180376 -0.2700009 0.090767294 -0.07144985 -0.36803392
0.2675471 -0.038023032 0.012438357 0.32082823 0.22335353 -0.38856956 0.41880885 0.15622544
-0.10935587 0.13966416 0.30344382 0.338135 0.1840743 0.42152008 -0.29174113 0.24485347
0.24125353 0.38289696 0.36287084 -0.25491744 0.0019991046 -0.16095431 0.19920883 -0.12084071
-0.21937759 0.01877473 0.18708083 0.15129253 -0.41171628 0.050505336 -0.20145978 0.3064473
-0.37026694 0.29937872 0.20722577 0.26502588 0.025772378 0.20729457 0.03171268 -0.35237545
-0.30058417 -0.40795085 0.3954885 -0.20629856 0.2518399 0.06616115 -0.037552416 -0.33648738
0.38206175 0.27208814 0.13147315 0.11179759 0.22154868 0.012494475 0.007293582 -0.20340392
-0.2667186 -0.16668227 0.15380262 -0.23824447 0.3922526 0.3361984 -0.0014466379 -0.33748758
-0.23058583 0.13636564 0.013129324 -0.114504546 0.18616426 -0.17305447 0.12936418 0.14571212
0.09337974 0.21870808 0.15149698 0.24067056 -0.21835989 -0.19086128 0.17095016 -0.104287386
0.43125483 0.081487685 -0.19612123 0.32443228 0.050131746 0.2822701 0.12215302 -0.023321083
0.25351134 0.23009104 -0.26123792 -0.37547243 -0.2505946 0.36670265 0.37451926 -0.2927736
0.08743345 0.3734732 0.35086158 0.33975384 0.16300347 -0.08540262 -0.15463409 -0.30828616
0.2217254 -0.4119422 0.18381314 -0.26511216 0.078703135 0.2660832 0.065513104 -0.0855723
0.25660422 -0.37531272 0.23132272 0.10151277 0.39329743 0.42046788 -0.07629183 0.38753763
-0.06338319 0.37235957 -0.1765541 -0.08474633 -0.12597114 0.11935786 0.2920315 0.22287457
0.047638893 0.18747069 0.18788221 -0.1895113 0.23583767 -0.36055574 0.015033469 0.19123034
-0.18958467 0.27061254 0.21656969 -0.27070135 -0.073852934 0.30833408 0.09417923 -0.17945471
0.23921987 -0.19932786 -0.260252 -0.38073868 0.15469283 -0.3888436 -0.12243235 -0.010228215
0.06768664 -0.39911094 -0.002513945 0.19423798 0.039165694 -0.28945053 -0.06635976 0.43119666
0.03647244 -0.26807877 0.26489583 0.36660734 0.14458486 -0.3009035 0.053421944 -0.30252442
0.02181992 -0.20458657 0.22708896 0.25658122 -0.18321097 -0.41053978 0.36074844 -0.29355198
-0.06912139 -0.045879602 0.03859335 0.23471043 -0.29171467 0.36019847 0.23820516 0.063723296
0.27269986 0.3512667 -0.1403661 0.08310673 -0.011561871 0.18077013 -0.34882095 -0.1305671
0.07176325 0.059773147 -0.014410466 -0.23310696 -0.3014248 -0.24097928 -0.31617254 0.2918943
-0.3128915 -0.32540506 0.39572057 -0.09868145 -0.16899884 0.12692764 -0.024275899 0.06971851
0.14403132 -0.34465384 0.18431035 -0.32580563 -0.23367007 -0.3470387 -0.36666372 -0.32109693
-0.11057201 0.3418279 0.3308973 -0.17799151 0.40258834 -0.22682445 -0.3869863 0.32977447

fc2.bias f4 [32]
00000000: 4cc4 1bbb 5cb0 acbd 6920 c53d 0095 03bc
00000010: 3a04 a6bd 4acd 7bbc 3d40 013d bfbc 103d
00000020: 88fa ddb9 c2c7 98bc cfb5 90bd d63d 18bd
00000030: ec2e dabd d0b8 a43d 40c5 5d39 fca2 b7bd
00000040: 1c31 6b3d aec5 d6bd 0813 b9bd b43d 93bd
00000050: 3f93 0bbc 6cd9 e63d f0e4 d73d 40d3 78bd
00000060: 44b9 a9bd e855 3bbd 7935 983b d96b 873d
00000070: 64e4 33bd d4c4 7d3d 00bf 0cba 1927 a53d
-0.0023768125 -0.084320754 0.09625322 -0.00803113 -0.08106275 -0.015368769 0.031555403 0.035336252
-0.00042339065 -0.01864994 -0.07065927 -0.037168346 -0.10653481 0.08043063 0.00021149684 -0.08966634
0.05741988 -0.10486923 -0.09036833 -0.07189503 -0.008518993 0.11271939 0.10541713 -0.06074834
-0.0828729 -0.045736223 0.0046450463 0.06612367 -0.043918982 0.061955288 -0.00053690374 0.08064098

fc3.weight f4 [3, 32]
00000000: ecf0 6cbd 3a25 19be fca4 763d 7ef7 23be
00000010: 2be6 333e 7e3d da3d 380f edbd 4c7f 19be
00000020: 0060 bf3a e06d e53b d7b2 0c3e e856 843c
00000030: 9ee3 ca3d a9c6 183e 06d9 31be b215 24be
00000040: 9014 163c d9b7 153e eee3 01be 1eb8 f53d
00000050: e623 e3bd 4e34 c43d 20b0 a53b 2347 f9bd
00000060: f272 e63d c861 383d 3634 1abe ca05 ce3d
00000070: de7d 983d 27d7 2d3e 2695 c23d d053 7a3d
00000080: 6dcd d73d 3ca2 003e 9d72 27ba 70d7 b2bc
00000090: 7495 ecbd 5fc8 093e 9fce 233e 73ea 103e
000000a0: c98e 283e 4771 9c3d 035c 0ebe d3b9 cdbb
000000b0: f0ac ba3c 2d00 d2bd ed81 1b3e 0b17 c13d
000000c0: d7d1 a7bd 5c7f 75bd 6f0a 243e 85df 90bd
000000d0: bd0e 313e 6a21 17be 6f70 263e 64d9 78bd
000000e0: e6e1 9f3d 517e 8fbd b7c4 18bd dccb 163e
000000f0: 5310 8c3d d0b5 583c 44cc 30bd 68d0 21be
00000100: 1820 ca3c 19b1 243e 3b0c 233e 27e5 b2bd
00000110: 8a01 a63d 2dd7 083e 87d3 27be 7fdf 1c3e
00000120: c0e0 7d3c a072 13bc 5c47 bcbd e0f6 833c
00000130: a037 b6bc 20f8 e4bb e06d 413c 6f1d 193e
00000140: d8fd 2abd be26 0dbe 1e2b c73d 9a10 b4bd
00000150: 2b76 b0bd 7a81 89bd f8cd 883d 6a17 963d
00000160: 3783 32be 54e1 8abd 8771 aebd 6521 b6bd
00000170: 98a2 303d 0386 2d3e a1ad 043e cb44 a3bd
-0.05784695 -0.14955607 0.060215935 -0.1601238 0.17568271 0.1065626 -0.11575168 -0.14989966
0.0014600754 0.0070016235 0.13740097 0.016154721 0.09906696 0.14919533 -0.17367944 -0.16023901
0.009160176 0.14620914 -0.12684605 0.11998008 -0.110908315 0.09580289 0.005056396 -0.121717714
0.11252393 0.045015126 -0.1505898 0.10059698 0.07445882 0.16976605 0.09501104 0.061115086
0.10537229 0.12561888 -0.0006387623 -0.021831244 -0.115519434 0.13455342 0.15996788 0.14151935
0.16460718 0.076387934 -0.13902287 -0.0062782555 0.022787541 -0.1025394 0.15186282 0.09428223
-0.08194321 -0.059935912 0.16019605 -0.07073883 0.17290778 -0.1475884 0.16253828 -0.060754195
0.078067586 -0.07006515 -0.037296977 0.14726204 0.06839051 0.013226941 -0.043163553 -0.15802157
0.024673507 0.16083182 0.15922634 -0.087351136 0.08105762 0.13363333 -0.16389285 0.15319632
0.015495479 -0.008999497 -0.09193298 0.01610893 -0.022243321 -0.0069875866 0.011805981 0.14952634
-0.04174599 -0.1378431 0.09725021 -0.08792229 -0.08616289 -0.06714149 0.066799104 0.07328685
-0.17432867 -0.06781259 -0.08517747 -0.08893088 0.04312381 0.16945653 0.12956859 -0.079721056

fc3.bias f4 [3]
00000000: 94a4 7344 5aa4 7344 94a4 7344
974.57153 974.568 974.57153
