exploration0/Qeval.pt (torch, 14167 bytes, 6 tensors)

fc1.weight f4 [64, 13]
0	0xbc2e1ae0	-0.010626525
1	0xbce1e7f0	-0.027576417
2	0x3e6b0d0a	0.22954193
3	0xbd6ae3ec	-0.05734627
4	0xbdf82890	-0.12117112
5	0x3a96af00	0.0011496246
6	0x3e3d742e	0.1850135
7	0x3d440f20	0.047865987
8	0x3e72a07e	0.23694035
9	0xbe50623f	-0.20349978
10	0xbc308680	-0.010774255
11	0xbd4ee584	-0.050511852
12	0x3db5daa4	0.08879593
13	0xbdb36056	-0.08758609
14	0xbe8349af	-0.25642154
15	0xbd8f607e	-0.07000826
16	0x3d32d5d8	0.04366097
17	0xbe84b055	-0.2591578
18	0x3e520b8c	0.20512217
19	0xbdf3b918	-0.11900538
20	0x3dd1ea2c	0.10249743
21	0xbda65bf4	-0.081230074
22	0xbdbac7b2	-0.0912012
23	0x3c83da80	0.0160954
24	0x3dba0898	0.090836704
25	0xbcd40080	-0.025879145
26	0xbc286880	-0.010278821
27	0xbe588c76	-0.21147332
28	0xbe7548f9	-0.23953618
29	0xbe2209d8	-0.15824068
30	0x3e469982	0.19394496
31	0x3e35cd8a	0.17754188
32	0xbe7e5de5	-0.24840505
33	0xbd23e4d4	-0.04001315
34	0xbe7c666f	-0.2464845
35	0x3de250f8	0.110506
36	0x3e611c68	0.21983492
37	0x3e62eb4c	0.22160071
38	0x3e60fdae	0.21971771
39	0x3cc6e720	0.02428013
40	0x3cd9c2e0	0.026582181
41	0xbe231b4a	-0.15928379
42	0xbe108744	-0.141141
43	0xbe280bdc	-0.16410774
44	0x3dffc210	0.12488186
45	0xbe05970d	-0.13045903
46	0x3e7a4c26	0.24443111
47	0x3bf9e440	0.0076260865
48	0x3e89d519	0.26920393
49	0x3dfd0764	0.12354925
50	0xbe590f3e	-0.2119722
51	0xbd854980	-0.0650816
52	0x3e7107de	0.23538157
53	0xbe76fb16	-0.24119219
54	0x3c9a52f0	0.018838376
55	0xbe3a2df9	-0.181816
56	0x3e1097a8	0.14120352
57	0x3e1dd06c	0.15411538
58	0xbe48c2a8	-0.19605505
59	0x3d718c68	0.058971792
60	0xbe657b8b	-0.22410409
61	0x3dba476c	0.09095654
62	0x3db71b6c	0.08940777
63	0xbe455706	-0.19271478
64	0xbc246420	-0.010033637
65	0xbe6e94fb	-0.23299019
66	0xbde67628	-0.11253005
67	0x3db0c5ec	0.086315006
68	0x3ddf68b4	0.109086424
69	0x3e8df661	0.27727035
70	0xbe8090f9	-0.25110605
71	0x3e23dfbc	0.16003317
72	0xbdee1cda	-0.11626597
73	0x3e750d3a	0.23930827
74	0x3e1f9606	0.15584573
75	0xbe78b49a	-0.24287644
76	0x3c24eec0	0.010066688
77	0x3e01a652	0.12661102
78	0x3e385652	0.18001679
79	0xbdf52aa0	-0.11971021
80	0x3dc3e6e8	0.09565526
81	0x3e202084	0.15637404
82	0x3e1e6f0c	0.15472049
83	0x3d722df8	0.05912587
84	0xbe1149dd	-0.14188333
85	0x3d4bbde8	0.049741656
86	0xbe8d63a5	-0.27615085
87	0x3e7435ee	0.23848698
88	0x3de30264	0.1108444
89	0x3dc69104	0.09695628
90	0x3e7e08f2	0.248081
91	0xbe884012	-0.26611382
92	0x3e80fbc5	0.25192085
93	0xbdb44b8c	-0.08803472
94	0x3dd738a0	0.10508847
95	0x3e71c5da	0.2361063
96	0x3da86ab4	0.08223477
97	0xbdd95002	-0.106109634
98	0x3c5059a0	0.012716681
99	0x3e46f8ac	0.19430798
100	0x3ca038f0	0.0195584
101	0xbe24e89c	-0.16104358
102	0xbcc948f0	-0.024570912
103	0x3e632682	0.22182658
104	0xbccd6780	-0.025073767
105	0xbe21c182	-0.15796474
106	0x3e18156e	0.14851925
107	0x3da4048c	0.0800868
108	0x3e74cec2	0.23906997
109	0xbe1209a8	-0.14261496
110	0x3dddf8b0	0.10838449
111	0xbcc70280	-0.024293184
112	0xbda44ea8	-0.08022815
113	0x3dffcb80	0.124899864
114	0x3e2b02e4	0.16700321
115	0xbccf0020	-0.025268614
116	0xbe227ca6	-0.15867862
117	0x3cdd7a40	0.027035832
118	0xbe38c267	-0.18042909
119	0xbe632a9d	-0.22184224
120	0xbe5bef0f	-0.21477912
121	0xbc8778b0	-0.01653704
122	0x3e695c3e	0.22789094
123	0xbd6b7b28	-0.057490498
124	0x3e624c6e	0.22099468
125	0xbe147691	-0.14498354
126	0x3e489dc6	0.19591436
127	0xbe8579c4	-0.26069462
128	0xbd686f48	-0.05674675
129	0x3d8450dc	0.06460735
130	0xbe68525c	-0.22687668
131	0xbe8374a9	-0.25674942
132	0x3e6d5bca	0.23179546
133	0x3d4b0ac8	0.04957083
134	0x3c418940	0.011812508
135	0xbd13b900	-0.0360651
136	0xbd947ab2	-0.07249965
137	0x3d83ddd8	0.06438798
138	0xbe040363	-0.12891917
139	0xbd8df8ea	-0.06932242
140	0x3e2ea5ee	0.17055485
141	0xbe807399	-0.25088194
142	0xbcb75a70	-0.022381991
143	0xbd9c00a6	-0.07617311
144	0x3ddb31bc	0.107028455
145	0xbbc8a540	-0.006123215
146	0xbce5bde8	-0.028044656
147	0xbc987690	-0.018611223
148	0x3c221400	0.009892464
149	0x3d6d4750	0.057929337
150	0x3de48830	0.11158788
151	0x3caebcd0	0.021330267
152	0x3d6c6fc8	0.05772379
153	0xbe738e57	-0.23784767
154	0xbd865940	-0.06559992
155	0xbe84f756	-0.25969952
156	0xbc537a00	-0.012907505
157	0x3e37de04	0.17955786
158	0x3dbdd628	0.09269363
159	0x3e3127bc	0.17300314
160	0xbe475196	-0.19464716
161	0x3e8832c1	0.26601222
162	0x3cd815f0	0.026377648
163	0x3d2a69e0	0.041604877
164	0xbe1a9614	-0.15096313
165	0xbddfbbe2	-0.10924508
166	0x3e84add5	0.25913873
167	0xbdceca98	-0.100972354
168	0x3e01d5a4	0.12679154
169	0x3c341640	0.010991633
170	0xbd95e776	-0.07319538
171	0xbe2e2088	-0.17004597
172	0x3e454db8	0.19267929
173	0xbdaafebc	-0.08349368
174	0x3d64ebd0	0.05588895
175	0x3e87a97b	0.2649649
176	0x3da40f8c	0.08010778
177	0x3dd9f44c	0.10642299
178	0xbc98e8e0	-0.018665731
179	0x3e8c8b4b	0.27450022
180	0x3d6ea240	0.058260202
181	0xbd8e6c1e	-0.069542155
182	0xbe2063d4	-0.15663081
183	0xbd7ea050	-0.062164605
184	0x3e718d52	0.23589066
185	0xbd971ce0	-0.07378554
186	0x3e8d1e3b	0.27562127
187	0x3e8959eb	0.26826414
188	0xbd2e6cd0	-0.04258424
189	0xbd2d01c4	-0.042238012
190	0x3e8cd7a9	0.27508286
191	0xbdcfd568	-0.10148126
192	0x3d40f6e0	0.04711044
193	0xbbd22200	-0.0064127445
194	0xbe0d7d44	-0.13817316
195	0xbdc01ae8	-0.09380132
196	0xbe611597	-0.21980892
197	0x3df4d828	0.11955291
198	0x3e5c63a8	0.21522391
199	0x3e766ce6	0.24064979
200	0xbd92f102	-0.07174875
201	0x3e8d42cd	0.27590027
202	0x3d922f78	0.0713796
203	0x3e0cc786	0.13747987
204	0xbe5d391d	-0.21603818
205	0x3e0d2410	0.13783288
206	0xbe15caf4	-0.14628202
207	0xbd1f2270	-0.0388512
208	0xbd756a6c	-0.059915945
209	0x3bc12140	0.0058938563
210	0x3e5837c6	0.21115026
211	0xbe7c5398	-0.24641263
212	0x3e65697a	0.22403517
213	0xbe642542	-0.22279838
214	0xbe3197f5	-0.17343123
215	0x3e2faa96	0.17154917
216	0x3e41c178	0.18921459
217	0x3e451b16	0.19248614
218	0xbc252240	-0.010078967
219	0xba7c0000	-0.0009613037
220	0x3d0f96d0	0.035055935
221	0xbc127a20	-0.00894025
222	0x3d4c59f8	0.04989049
223	0x3e09d62a	0.13460603
224	0xbe150bd3	-0.14555292
225	0x3e822705	0.25420395
226	0x3e0ca698	0.13735425
227	0xbe797298	-0.2436012
228	0xbe3f21f7	-0.186653
229	0xbe232b18	-0.15934408
230	0x3de01390	0.10941231
231	0xbd8397ac	-0.064254135
232	0x3d86eb28	0.06587821
233	0x3b604d00	0.0034225583
234	0x3e891467	0.26773378
235	0xbe5199aa	-0.20468774
236	0xbe07c288	-0.13257802
237	0xbd375d3c	-0.04476665
238	0x3e01fd64	0.12694317
239	0x3d4dc6a0	0.05023825
240	0xbce65cf0	-0.028120488
241	0x3e0a4e80	0.13506508
242	0xbd6d500c	-0.057937667
243	0xbd8a13a0	-0.067420244
244	0x3ddcbea0	0.10778546
245	0xbe3f2039	-0.18664636
246	0x3e20250c	0.15639132
247	0x3d270808	0.040779144
248	0x3e81418d	0.25245324
249	0x3e5355fa	0.20638266
250	0x3e86bff5	0.26318327
251	0xbd907448	-0.07053429
252	0xbd3f8100	-0.046753883
253	0xbc96e470	-0.018419474
254	0xbe3d97e7	-0.18514977
255	0xbdb5a506	-0.08869366

fc1.bias f4 [64]
0	0xbe5cdfda	-0.21569768
1	0xbdfbb7cc	-0.12290916
2	0x3e4c96e4	0.19979435
3	0xbd5e7f6c	-0.054320738
4	0xbdadb3fa	-0.084815934
5	0xbd0acd18	-0.033887
6	0x3e3c2896	0.18374857
7	0x3d3835d8	0.044973224
8	0xbdbe3aee	-0.09288584
9	0x3e57127e	0.21003148
10	0x3e8604a7	0.26175424
11	0x3dccc620	0.09998727
12	0x3de0a4b4	0.10968915
13	0xbe0cb19f	-0.13739632
14	0xbe64b28b	-0.22333734
15	0xbe7c98e7	-0.24667703
16	0x3c9d1990	0.019177228
17	0x3de0c5d4	0.10975233
18	0x3d0163b0	0.03158921
19	0x3e145bbc	0.14488119
20	0xbdc1f038	-0.09469646
21	0x3e5fb468	0.21846163
22	0x3e00703c	0.12542814
23	0x3e1d5b3c	0.15366834
24	0xbd69370c	-0.056937262
25	0xbe6c1742	-0.23055747
26	0x3e5408a4	0.20706421
27	0xbbb1f8c0	-0.0054312646
28	0x3de817c4	0.11332658
29	0x3e82bbab	0.25533804
30	0xbe8997fe	-0.26873773
31	0xbbc3d940	-0.005976826
32	0x3e54bef0	0.20775962
33	0xbd48a3e4	-0.048984423
34	0x3e8d2479	0.2756689
35	0x3cbafb30	0.022824854
36	0x3d858ee0	0.06521392
37	0x3df79fd0	0.12091029
38	0x3d1d8508	0.038456947
39	0xbe2b2d94	-0.16716605
40	0xbe8c7cc6	-0.27438945
41	0x3e4ee84c	0.20205802
42	0xbe7b4a48	-0.24540055
43	0x3e35edb4	0.17766458
44	0xbd0ae424	-0.033908978
45	0x3e6ac65e	0.22927234
46	0x3e77f62e	0.24215004
47	0xbe724bc6	-0.23661718
48	0xbe2b4c08	-0.16728222
49	0x3e118a1a	0.14212838
50	0xbd792ecc	-0.060835645
51	0x3e28f0e4	0.16498142
52	0xbd91febe	-0.07128666
53	0xbdb3bb72	-0.08775987
54	0x3d623790	0.05522877
55	0x3d712d58	0.058881134
56	0x3e7e60da	0.24841633
57	0x3d568628	0.052374035
58	0xbe404010	-0.18774438
59	0xbcfd25d8	-0.030901834
60	0xbd657e60	-0.056028724
61	0xbdc7e98a	-0.09761341
62	0x3dd5db70	0.10442245
63	0xbe5b9c33	-0.21446304

fc2.weight f4 [32, 64]
0	0xbd631028	-0.05543533
1	0xbdd147d8	-0.10218781
2	0xbcaa4b30	-0.020787805
3	0xbcce85b8	-0.025210246
4	0xbdefbc42	-0.11705829
5	0x3d8ebda2	0.06969763
6	0x3cd8a9d0	0.02644816
7	0x3d8767a8	0.06611568
8	0xbc6bd300	-0.014393568
9	0x3ded3b84	0.11583617
10	0x3d424cf4	0.04743667
11	0x3b17efc0	0.0023183674
12	0x3b35c5c0	0.0027736276
13	0xbde80618	-0.11329287
14	0x3d000228	0.031252056
15	0x3cf10600	0.029421806
16	0x3c5790d0	0.013157085
17	0xbb38fd00	-0.0028226972
18	0x3d14205c	0.036163673
19	0x3d36ddb8	0.04464504
20	0x3db6aa3c	0.089191884
21	0x3d51f7c8	0.051261693
22	0xbdaedcce	-0.08538209
23	0xbdb49a28	-0.088184655
24	0xbd1de558	-0.038548797
25	0xbda900a4	-0.08252075
26	0x3cefe770	0.029285163
27	0x3df65cc6	0.12029414
28	0xbcf6c758	-0.030124351
29	0xbdcbbc82	-0.099480644
30	0x3d06fb64	0.03295459
31	0xbcf946f0	-0.030429333
32	0x3d18ab54	0.037272766
33	0xbda37f90	-0.07983315
34	0xbdbd2d32	-0.09237136
35	0x3de3dc3a	0.11125989
36	0x3dc6418a	0.09680469
37	0x3dbb83a2	0.09155966
38	0xbaff4380	-0.0019475073
39	0xbd533710	-0.051566184
40	0xbdf3257a	-0.118723825
41	0x3db29be0	0.08721137
42	0xbd875194	-0.06607357
43	0xbbe88e20	-0.0070970207
44	0x3d32f150	0.043687165
45	0x3cd0c330	0.025483698
46	0xbd98ab2c	-0.074545234
47	0xbc84a6c0	-0.016192794
48	0x3d96da4c	0.073658556
49	0x3dcf1cb8	0.101128995
50	0xbb670780	-0.0035252273
51	0x3db4bd96	0.08825223
52	0xbd6f2034	-0.05838032
53	0xbd396848	-0.045265466
54	0x3ba98a20	0.0051739365
55	0xbd9bcdf4	-0.07607642
56	0x3db7279e	0.08943103
57	0x3d5ccaac	0.05390422
58	0xbdbb37bc	-0.0914149
59	0xbda9bafc	-0.082876176
60	0xbda13f7c	-0.07873437
61	0xbad8c880	-0.0016539246
62	0x3dff0296	0.12451665
63	0xbda51768	-0.08061105
64	0xbd534028	-0.051574856
65	0x3c9ce660	0.01915282
66	0xbba1bd40	-0.0049358904
67	0xbd4e8bf4	-0.05042644
68	0xbd933f3a	-0.07189794
69	0xbd96217e	-0.07330607
70	0xbd9d3cbe	-0.07677601
71	0x3d26c980	0.04071951
72	0x3d912b82	0.070883766
73	0x3de0bdf6	0.10973732
74	0x3d5dc1bc	0.054139838
75	0xbdf9ffc0	-0.122069836
76	0x3dab83dc	0.083747596
77	0x3d0fb2dc	0.035082683
78	0x3bf59d00	0.0074955225
79	0xbdd1ca1e	-0.10243629
80	0xbd008048	-0.03137234
81	0x3c061650	0.008184031
82	0x3d3b01ec	0.04565613
83	0xbdc0712e	-0.09396587
84	0x3dd4d138	0.10391468
85	0xbccac1e0	-0.02475065
86	0xbdd52f1a	-0.104093745
87	0x3d321abc	0.043482527
88	0x3dbf6a0c	0.09346399
89	0xbd20a8f8	-0.03922364
90	0x3cd24790	0.02566889
91	0xbd850616	-0.064953014
92	0xbd37df58	-0.04489073
93	0xbcf2b128	-0.02962549
94	0x3ddaaf7e	0.10678004
95	0xbda82b62	-0.082113996
96	0xbc1fe030	-0.00975804
97	0xbc728170	-0.014801368
98	0xbd54395c	-0.051812515
99	0xbd8b9638	-0.06815761
100	0xba358e00	-0.00069257617
101	0xbd182e1c	-0.03715335
102	0x3d89e7dc	0.06733677
103	0xbbed5ea0	-0.007243946
104	0xbd29519c	-0.041337594
105	0xbc4c2af0	-0.012461409
106	0xbd925e2a	-0.071468666
107	0xbae19880	-0.0017211586
108	0x3dbb2db8	0.091395795
109	0x3d024308	0.031802207
110	0xbc377830	-0.0111980885
111	0xbd8a9a06	-0.06767659
112	0xbd7991e4	-0.060930148
113	0xbd4c0a44	-0.049814478
114	0x3bbb7ca0	0.0057216436
115	0xbd27b0c0	-0.040940046
116	0xbd5669f8	-0.052347153
117	0xbcb761b8	-0.022385463
118	0x3d7cf764	0.061759368
119	0xbcf27a98	-0.029599473
120	0x3d99ba24	0.07506207
121	0x3d1dab10	0.038493216
122	0xbc56ff10	-0.013122335
123	0x3d808272	0.062748805
124	0xbdfd6558	-0.123728454
125	0x3dade886	0.08491616
126	0x3c9b4c18	0.018957183
127	0x3d40a0b0	0.047028244
128	0x3c0d34d0	0.0086185485
129	0xbdf65b4c	-0.12029132
130	0x3cbba2e0	0.022904813
131	0x3db90f0e	0.090360746
132	0x3d024090	0.031799853
133	0xbd6c5cc0	-0.05770564
134	0xbd5c7b0c	-0.053828284
135	0xbdb5c128	-0.08874732
136	0x3def4608	0.11683279
137	0xbd422044	-0.047394052
138	0x3d315688	0.043295413
139	0xbb866fa0	-0.004102662
140	0x3aebd080	0.0017991215
141	0x3ca8b030	0.020591825
142	0xbdc8e280	-0.098088264
143	0xbdb2bdca	-0.08727606
144	0x3d29e9d0	0.041482747
145	0x3de7514c	0.11294803
146	0xbd527290	-0.051378787
147	0xbda931ec	-0.08261475
148	0xbd8f2550	-0.06989539
149	0xbd3688bc	-0.044563994
150	0x3de5314c	0.11191043
151	0x3bf3d240	0.0074408352
152	0xbdf1d9d4	-0.118091255
153	0xbdabe548	-0.08393341
154	0x3dbd9ad0	0.09258044
155	0x3d599580	0.05312109
156	0xbd2e33a8	-0.042529732
157	0xbdbe19ae	-0.09282242
158	0x3df8b59e	0.12144016
159	0x3ddd7af8	0.1081447
160	0xbd2abec0	-0.04168582
161	0x3c9666f0	0.018359631
162	0xbc4d14b0	-0.012517139
163	0x3d83c9a0	0.06434941
164	0x3da3bada	0.079946235
165	0x3d845aee	0.06462656
166	0x3c9ef2e0	0.019402921
167	0xbdae99d8	-0.08525437
168	0xbd539658	-0.05165705
169	0xbd625f98	-0.055266947
170	0xbcf410c0	-0.029793143
171	0x3d758e40	0.059950113
172	0x3d62f8f8	0.055413216
173	0xbdb67380	-0.089087486
174	0x3c1ac600	0.009446621
175	0x3d64ed04	0.0558901
176	0xbdfeeaa4	-0.12447098
177	0x3dcd8f24	0.100370675
178	0xbd0563b0	-0.032565773
179	0x3d7c926c	0.061663076
180	0x3cbbd340	0.02292788
181	0x3d7ac044	0.061218515
182	0xbdd1e114	-0.10248008
183	0xbdaa78b8	-0.083238065
184	0x3dc3dea6	0.09563951
185	0xbc93f8c0	-0.01806295
186	0x3d77bea4	0.060484543
187	0xbc83c418	-0.016084716
188	0xbb1cc840	-0.002392307
189	0x3d6daef0	0.05802816
190	0x3cf96538	0.030443773
191	0x3c167f40	0.009185612
192	0xbd12fde4	-0.03588666
193	0xbd6ba560	-0.05753076
194	0xbbb35800	-0.005473137
195	0x3df54470	0.11975944
196	0xbd43aa1c	-0.04776965
197	0x3ced5c08	0.028974548
198	0x3d815a20	0.06316018
199	0xbd286acc	-0.041117474
200	0x3de8d5a2	0.11368872
201	0xbccc8ce0	-0.024969518
202	0x3cdc9460	0.02692622
203	0xbcdad8c8	-0.026714697
204	0xbdb57e68	-0.08862001
205	0xbd4be1d0	-0.0497759
206	0x3db34ba2	0.0875466
207	0x3d8542c0	0.06506872
208	0xbb84c440	-0.004051715
209	0x3c2929e0	0.010324925
210	0x3d318448	0.043339044
211	0xbdebb59c	-0.115092486
212	0xbde0a7b6	-0.10969488
213	0x3c7aa290	0.015297547
214	0xbd4772d0	-0.048693478
215	0x3d56edfc	0.052473053
216	0xbd551230	-0.052019298
217	0xbdc06356	-0.09393947
218	0xbc4371e0	-0.011929005
219	0x3dbac96a	0.09120448
220	0xbd2a5c3c	-0.041591868
221	0xbd1b6b3c	-0.037944064
222	0xbcbfed18	-0.023428485
223	0xbd9ded46	-0.07711272
224	0xbc51b890	-0.012800351
225	0x3aee6300	0.0018187463
226	0xbb3b8f80	-0.0028619468
227	0x3c570ba0	0.01312533
228	0x3d72e4b4	0.05930014
229	0xbd8e3250	-0.0694319
230	0x3bc1a860	0.0059099644
231	0x3b1e3000	0.0024137497
232	0x3ca19360	0.019723594
233	0xbd6f0ed0	-0.058363736
234	0xbdea03a6	-0.11426477
235	0xbd923ab2	-0.071401015
236	0xbd0fae78	-0.035078496
237	0xbd8dcc14	-0.069236904
238	0xbdc63f6a	-0.09680064
239	0x3df8633e	0.12128304
240	0xbdd2a886	-0.102860495
241	0x3d918010	0.07104504
242	0x3d48ce18	0.04902467
243	0xbd27b24c	-0.04094152
244	0xbdf21386	-0.1182013
245	0x3ace6500	0.0015746653
246	0x3de121b2	0.10992755
247	0x3d84b334	0.06479493
248	0x3da24d38	0.079248846
249	0x3dffd228	0.12491256
250	0xbd199aec	-0.03750126
251	0x3cfaf4f8	0.030634388
252	0xbdcc6a32	-0.09981193
253	0xbd20a6b4	-0.03922148
254	0x3b9512c0	0.0045493543
255	0xbd8c88fc	-0.06862065

fc2.bias f4 [32]
0	0xbdaf7bd4	-0.0856854
1	0x3d682758	0.056678146
2	0xbdb00184	-0.08594039
3	0x3d95d1f0	0.07315433
4	0x3dd2fe1e	0.10302375
5	0x3d30c7d8	0.043159336
6	0x3d190e08	0.037366897
7	0x3dbbab10	0.09163487
8	0xbde9ea30	-0.11421621
9	0xbc293cf0	-0.01032947
10	0xbd56b0cc	-0.0524147
11	0xbda22688	-0.079175055
12	0x3d7f6f20	0.062361836
13	0x3d9290d8	0.07156533
14	0xbc37dfb0	-0.011222765
15	0xbc5d19f0	-0.0134949535
16	0xbd93f4c8	-0.07224423
17	0x3c03e040	0.008049071
18	0x3d327404	0.043567672
19	0xba3dbd00	-0.0007237941
20	0xbda85ce0	-0.082208395
21	0xbd48f104	-0.049057975
22	0xbd7faf3c	-0.062422976
23	0xbcbb1220	-0.022835791
24	0x3df68dc6	0.1203876
25	0x3c178730	0.00924854
26	0xbdb1be2a	-0.08678849
27	0x3dfeab32	0.12434997
28	0x3de763d4	0.112983376
29	0x3da58b64	0.08083227
30	0xbdeeaab4	-0.11653653
31	0xbd836f1c	-0.06417677

fc3.weight f4 [3, 32]
0	0xbdbf9fe0	-0.093566656
1	0xbca93028	-0.020652846
2	0xbe0e7c36	-0.1391457
3	0x3be10e20	0.006868139
4	0xbd338aac	-0.04383342
5	0xbdf5ab83	-0.11995604
6	0x3e116289	0.14197744
7	0x3e15700f	0.14593528
8	0x3d896e48	0.067104876
9	0x3dd22cce	0.10262452
10	0xbdb82023	-0.089905046
11	0xbd91e849	-0.07124383
12	0xbe02f015	-0.12786897
13	0x3dd69ec2	0.104794994
14	0xbdbff7db	-0.093734466
15	0x3d3d541c	0.04622279
16	0xbde73125	-0.112886705
17	0xbd1c12a4	-0.038103715
18	0xbdf5057c	-0.11963937
19	0x3d68ea68	0.056864172
20	0xbde13689	-0.1099673
21	0x3e25a283	0.16175275
22	0xbd0b09ec	-0.03394501
23	0xbdd69243	-0.10477116
24	0x3cc26bc8	0.023733035
25	0x3dabf1ca	0.08395727
26	0x3d748638	0.059698313
27	0xbde6ad8c	-0.1126357
28	0x3d80f13c	0.06296012
29	0x3de8beda	0.11364527
30	0xbe07c9c6	-0.13260564
31	0x3d2f5948	0.042809755
32	0x3dc906e2	0.09815766
33	0xbd52113c	-0.051285967
34	0xbda7bf97	-0.0819084
35	0x3de159e6	0.11003475
36	0xbd4804a8	-0.048832566
37	0xbe174295	-0.14771493
38	0xbc1947f0	-0.00935553
39	0x3e256ee3	0.16155581
40	0xbe03f0aa	-0.12884775
41	0xbe1a6934	-0.15079194
42	0x3d47256c	0.048619673
43	0x3ba3f720	0.005003825
44	0xbe34bc3c	-0.1764993
45	0x3c502ad0	0.01270552
46	0x3db8357a	0.08994575
47	0x3ccf4bc0	0.025304675
48	0xbe12b945	-0.14328487
49	0x3e33edfb	0.17571251
50	0xbb6c3400	-0.0036041737
51	0x3d587418	0.05284509
52	0xbbdafa20	-0.0066826493
53	0xbccf5058	-0.025306866
54	0xb921d000	-0.00015431643
55	0x3dd26d7e	0.1027479
56	0x3d3f260c	0.046667144
57	0x3e1da4df	0.15394925
58	0x3dec5656	0.11539905
59	0xbe0d5cd3	-0.13804941
60	0xba5a8700	-0.00083361566
61	0xbd80224c	-0.062565416
62	0xbe0f8bda	-0.14018193
63	0x3d55dfe0	0.052215457
64	0x3de82f36	0.1133713
65	0xbd2a0240	-0.041506052
66	0xbdbdf68d	-0.092755415
67	0x3aabee00	0.0013117194
68	0x3dfb19fa	0.12260814
69	0xbdec2bda	-0.115318015
70	0xbd8f64b2	-0.07001628
71	0x3e34d9e1	0.17661239
72	0xbe253337	-0.16132818
73	0x3d8c03e0	0.068366766
74	0xbd0f0070	-0.034912527
75	0x3df242aa	0.118291214
76	0xbe0b0ffc	-0.13580316
77	0xbd407130	-0.046982944
78	0xbd732d7c	-0.05936955
79	0xbe23b4cb	-0.15986936
80	0xbe03f10e	-0.12884924
81	0xbc031fa0	-0.008003145
82	0x3bac1740	0.005251795
83	0x3dccda9a	0.100026324
84	0x3e0cd04d	0.13751335
85	0xbca483e8	-0.020082429
86	0x3e0f36a9	0.13985695
87	0xbda3f2f7	-0.08005326
88	0xbd995da6	-0.07488565
89	0x3d072a1c	0.032999143
90	0x3e0bfb2f	0.13670038
91	0xbe214598	-0.15749204
92	0x3df0daea	0.117605045
93	0x3dff8dc2	0.1247821
94	0xbc88c398	-0.016694829
95	0x3dec04fe	0.1152439

fc3.bias f4 [3]
0	0x3e04daaf	0.12974046
1	0xbe071933	-0.13193206
2	0x3dcd491a	0.10023709
