exploration200/Qeval.pt (torch, 14167 bytes, 6 tensors)

fc1.weight f4 [64, 13]
000000 e0 52 f6 bc f0 c9 a0 bc 6c 25 12 3e cc 50 4d bd
       -0.030068815 -0.019627541 0.14272088 -0.050125882
000010 80 84 89 be a8 3b 2b 3d f0 86 b4 bc 41 ec 60 be
       -0.26858902 0.04180494 -0.022037 -0.21965124
000020 c9 10 81 3e 18 1c 1f 3d 28 de 1d be 00 47 01 3e
       0.2520812 0.03884515 -0.15416777 0.1262474
000030 16 d7 82 bd c8 87 f2 3d 4e 6c 61 be 96 29 fb bd
       -0.06388681 0.118423045 -0.22013971 -0.12263791
000040 f0 6d a6 3c 37 52 82 3e 40 22 d2 3b c0 11 70 be
       0.020316094 0.2545335 0.0064127743 -0.23444271
000050 71 e2 18 be b6 e9 4e 3e b0 e7 a9 3c a0 93 54 3e
       -0.1493013 0.20206341 0.02074036 0.2075944
000060 20 27 34 3e 44 18 1f be 58 f7 4c 3e a8 d4 43 bd
       0.1759305 -0.155366 0.20016229 -0.047810227
000070 08 71 8d be 42 53 18 3e 80 c1 ce 3d 28 48 fd bc
       -0.27625299 0.1487551 0.10095501 -0.030918196
000080 90 87 e5 bd 73 ce 7f be 30 26 9a bc 34 24 98 bd
       -0.11207497 -0.24981098 -0.018817037 -0.0742878
000090 f0 aa 2e bd a4 4b 38 3e 91 e0 4f be 56 89 ff bd
       -0.042643487 0.17997605 -0.20300509 -0.124773666
0000a0 b2 2b a1 bd 29 70 83 3e ce 4c 80 bd 31 0a 48 be
       -0.07869662 0.2567151 -0.06264649 -0.19535138
0000b0 58 8a 1d 3e ec dc 3a 3e 05 20 19 be 2a 98 55 3e
       0.15384805 0.18248338 -0.1495362 0.20858827
0000c0 39 bb 8c 3e 0d b5 89 be f3 cd 87 be fa 4e 86 be
       0.2748659 -0.26895943 -0.26524314 -0.2623213
0000d0 31 d4 43 be 98 74 8e 3d f9 cd 81 3e d0 f0 8b 3c
       -0.19123913 0.06955832 0.25352457 0.017082602
0000e0 18 83 71 be 20 3f 06 3e 44 6f 09 3e a0 bc bd bc
       -0.23585165 0.13110018 0.1342135 -0.023161232
0000f0 57 e6 11 be 11 d7 3f be 7a 35 20 be 30 51 00 3d
       -0.14248024 -0.18734385 -0.156454 0.031327426
000100 37 3c 81 3e 0b 33 86 be 08 c8 4f 3d d0 2a 66 be
       0.25241253 -0.26210818 0.050727874 -0.22477269
000110 4c 14 86 be 44 58 51 3e f0 69 1b 3e 49 95 4c be
       -0.2618736 0.20443827 0.1517713 -0.19978823
000120 70 03 af 3c c0 d4 5f bc 40 a6 8d bb 28 29 b5 3d
       0.021363944 -0.013661563 -0.004322797 0.088457406
000130 9e 29 17 3e 48 e6 54 3d 08 0d 9e bd 4a 26 29 be
       0.1476197 0.051977426 -0.07717329 -0.16518512
000140 00 fb 91 bc 57 ec 78 be a0 52 4b 3c 76 99 88 be
       -0.017819881 -0.24308906 0.012409836 -0.2667958
000150 be 1b 2b 3e 72 81 41 3e ae 17 27 3e f6 70 33 be
       0.16709802 0.18897036 0.16317627 -0.1752356
000160 85 c8 00 be ac 09 74 bd c8 b0 ff bc 1d 86 89 3e
       -0.12576492 -0.059579536 -0.031212226 0.26860133
000170 18 6d dd 3d 40 8b 9e bb 74 1f 0e 3e 48 8a 4d 3d
       0.108118236 -0.0048383772 0.13879186 0.050180703
000180 b8 6a 71 be 70 41 db bd b9 53 84 3e 01 70 8c 3e
       -0.23575866 -0.107058406 0.25845125 0.27429202
000190 90 16 28 bd 76 f7 7b 3e a8 59 2c bd d4 89 8e bd
       -0.041037142 0.24606118 -0.04207769 -0.069598824
0001a0 73 d6 73 be 3b 7d 6a be b0 f0 d4 3d bc 40 8c be
       -0.23812275 -0.22899334 0.1039747 -0.27393138
0001b0 e0 95 09 be c8 3e f2 3d 30 55 cd 3d 9c 2f e9 3d
       -0.13436079 0.11828381 0.10026014 0.11386034
0001c0 4a c0 79 3e a8 9a 2a be a0 e9 96 3c b2 57 7a be
       0.24389759 -0.16660559 0.018421948 -0.24447516
0001d0 be 41 42 3e bc 66 00 3e 24 77 33 be b6 2b 0d 3e
       0.18970391 0.1253919 -0.17525917 0.13786206
0001e0 88 53 28 be e4 4f 3d 3e 6e 89 62 be d2 7f 6d 3e
       -0.16438115 0.18487507 -0.22122738 0.23193291
0001f0 c2 59 80 be 35 50 71 be 68 a7 40 3e 76 99 83 be
       -0.2506848 -0.23565753 0.1881386 -0.2570302
000200 86 b6 05 be da b0 69 3e 4c ac 89 bd 1c 56 2f 3e
       -0.13057908 0.2282137 -0.06722316 0.17122692
000210 36 c7 01 3e 92 47 52 3e 76 4c 78 3e 46 64 09 3e
       0.12673649 0.20535114 0.24247918 0.13417158
000220 c0 77 28 3e a0 0d 9c 3c ee cc 15 be 05 00 05 be
       0.16451931 0.019049466 -0.14628956 -0.12988289
000230 76 5e 42 be 97 80 60 be 5c ba 4d 3e a0 97 e5 bc
       -0.18981346 -0.21924053 0.20090622 -0.028026402
000240 8c aa 6f be 18 ca 0b 3e 54 e8 c7 bd 6c 37 6f bd
       -0.23404902 0.13651311 -0.0976111 -0.058402464
000250 c0 bc 89 3b 4d 7a 16 be be c4 a3 bd 44 05 43 bd
       0.004203409 -0.14695092 -0.0799651 -0.047612444
000260 80 fc 9d 3c 70 f2 39 be 04 66 17 bd 0c 2c 50 3e
       0.01928544 -0.18158889 -0.036962524 0.20329303
000270 ec ae af bd c4 69 6f bd 36 68 00 be b4 b5 08 bd
       -0.085782856 -0.058450475 -0.12539753 -0.03337641
000280 80 42 dc 3b 1b 65 80 be 3d a5 64 be e2 23 a5 bd
       0.0067217946 -0.25077137 -0.22328658 -0.08063485
000290 9e 98 88 be 0a 4d 7f be a3 d7 3b be 43 c9 7e be
       -0.26678938 -0.24931732 -0.18343978 -0.24881463
0002a0 6a 51 1f be e6 1c 79 3e d6 06 3e 3e 88 a4 fd bd
       -0.15558401 0.2432743 0.18557295 -0.123848975
0002b0 18 6e 4c 3e da 9d 7c be 40 97 80 bb 76 a2 2a 3e
       0.19963872 -0.2466959 -0.0039242804 0.16663536
0002c0 fb 14 48 be b3 af 8a be a0 1b 72 be 06 d7 07 3e
       -0.19539253 -0.27087173 -0.2364335 0.13265619
0002d0 f8 58 f2 3d 9b ae 47 be f2 f5 7b 3e 54 68 f9 3d
       0.11833376 -0.195002 0.2460554 0.12178102
0002e0 a0 77 27 bc fe 7d 57 be 90 bd 98 bd 72 7f 03 3e
       -0.010221392 -0.21044156 -0.07458031 0.12841585
0002f0 9f 3f 66 be 9a bc 2b be d7 1f 57 be 61 a9 6c be
       -0.22485207 -0.16771165 -0.2100824 -0.23111488
000300 e0 f3 5a 3e d8 11 03 3e 00 b5 01 3e ac ef 44 3e
       0.21382093 0.12799776 0.12666702 0.19232053
000310 10 f9 ff 3c fb da 7b be 98 ec 3c bd 8f 9b 1b be
       0.031246692 -0.24595253 -0.04612407 -0.1519606
000320 02 51 0c 3e 00 b3 7b 3d 42 29 94 bd 08 e1 6c 3d
       0.13702777 0.061450005 -0.07234432 0.057831794
000330 d0 8f 09 3e 5a eb 09 be c0 f4 e8 3d 9e 9f 45 3e
       0.13433766 -0.13468686 0.11374807 0.1929917
000340 00 0e 49 ba 40 d1 cf bc 73 e9 85 3e c0 f4 b4 3b
       -0.00076696277 -0.025368333 0.2615467 0.0055223405
000350 a0 91 7a 3c d8 29 e5 3d d0 f5 09 3e 7c d6 1b bd
       0.015293509 0.11189622 0.13472676 -0.038046345
000360 04 6e fa 3d 80 d3 f6 3c b9 9c 81 3e d2 aa 63 3e
       0.12228015 0.030130148 0.25314882 0.22233132
000370 d4 56 9a bd c4 a6 00 bd 28 a9 e7 bc 12 9b 2f be
       -0.075360924 -0.03140904 -0.028278902 -0.17148998
000380 d0 ec 65 3d 63 56 4c be 8e 8e 2d 3e 9a 41 6d be
       0.056134045 -0.19954829 0.16948912 -0.23169556
000390 46 b0 4f 3e 58 a0 1a 3d 5e f8 db bd 56 14 66 3e
       0.20282087 0.037750572 -0.10740732 0.22468695
0003a0 be 57 79 3e c0 d5 51 be 7e 30 7f 3e 56 1f 32 be
       0.24349877 -0.20491695 0.24920842 -0.17394766
0003b0 26 23 5a be 1b 0c 2f be de a2 ee bd c0 f8 50 be
       -0.2130247 -0.17094462 -0.11652158 -0.2040739
0003c0 d4 f8 64 bd cc 7b a0 bd cc 14 03 bd 76 c3 24 be
       -0.055901363 -0.078361124 -0.032002255 -0.16090187
0003d0 f0 6a 89 be 96 1f ba bd ae ad 93 bd 8e a9 33 3e
       -0.268394 -0.09088056 -0.07210861 0.17545149
0003e0 86 3d 7f 3e 97 a3 10 be 50 ea 0b 3e d8 77 37 be
       0.24925813 -0.14124905 0.13663602 -0.1791681
0003f0 60 f5 0b bc 20 e9 48 3d 16 c8 54 3e a0 f6 98 3c
       -0.008542389 0.04905045 0.20779452 0.018672287

fc1.bias f4 [64]
000000 b7 15 31 be 22 67 43 3e 6b 21 8c 3e f2 42 02 3e
       -0.1729344 0.19082311 0.27369246 0.1272085
000010 80 5e ef bb ba 2f c0 bd 16 d9 3b be 12 68 ad bd
       -0.0073049664 -0.09384103 -0.1834453 -0.084671155
000020 a1 44 34 be 18 e1 67 3d 20 a5 3f bd 76 38 50 be
       -0.17604305 0.05661115 -0.046788335 -0.20334038
000030 a6 35 55 be 4d b6 1c be be 85 bf bd e2 a0 28 be
       -0.20821247 -0.15303917 -0.09351681 -0.16467622
000040 60 26 f6 bd 94 75 80 3d 00 08 0a 3b 58 f5 4d be
       -0.12019038 0.06272426 0.0021061897 -0.20113122
000050 e6 ae 15 3e 46 12 53 3e 00 22 48 be 4c 17 ea 3d
       0.146175 0.2061244 -0.1954422 0.11430225
000060 02 f8 74 3e fc 79 63 3e 84 5b 09 bd a9 fd 82 be
       0.23922732 0.22214502 -0.03353454 -0.25584152
000070 2c a7 21 be dd 1e 1d be 96 5a 3b 3e 0e 37 64 3e
       -0.15786427 -0.15343805 0.18296275 0.22286627
000080 b2 b8 28 be bc a5 f9 bd 12 3d 34 3e 6e 09 fc bd
       -0.16476706 -0.121898144 0.17601421 -0.12306486
000090 34 04 65 bd 23 b8 53 be 98 06 c8 3d ee 05 85 bd
       -0.05591221 -0.20675711 0.09766883 -0.064952716
0000a0 44 c8 88 3d cc 9b bf 3d b3 60 11 be c0 71 f9 3b
       0.06678823 0.09355888 -0.14197044 0.007612437
0000b0 ed 85 2a be 3c ff 2d 3e 70 9b 0b be 7c 8f a4 3d
       -0.16652651 0.16991895 -0.13633513 0.0803518
0000c0 79 9e 80 3e f4 4e 36 bd fc e8 65 be 60 cb 6f 3c
       0.25120905 -0.04450889 -0.22452158 0.014635891
0000d0 66 80 00 be 14 b4 c4 3d e0 aa dd bc 18 4d 3f 3d
       -0.1254898 0.0960466 -0.027059019 0.04670438
0000e0 70 ab 9e 3c e4 10 10 3e 32 44 b1 bd 62 94 7b be
       0.019368857 0.14068943 -0.08655585 -0.24568322
0000f0 28 1a 85 bd 46 92 7a 3e be bc 99 bd 08 af 44 3d
       -0.064991295 0.24469861 -0.07506703 0.048018485

fc2.weight f4 [32, 64]
000000 2a 0a 80 3d ba ac e9 3d 48 70 ed 3c 80 57 92 3a
       0.06251939 0.11409898 0.028984204 0.0011164993
000010 a0 ed 1f 3c 40 8d 89 bd 24 a6 7c bd 40 4d 83 3b
       0.009761244 -0.067163944 -0.06168188 0.0040070117
000020 a8 01 04 bd 22 6b f0 bd 98 f0 d7 bd 72 31 9c bd
       -0.032228142 -0.11739184 -0.105439365 -0.076266184
000030 66 e3 d8 3d 50 58 ed 3d f6 95 99 bd 2e 91 c5 3d
       0.10590248 0.1158911 -0.07499306 0.096468315
000040 b6 74 f9 bd 00 ec 43 3a 7c 35 5a bd f0 63 bd bd
       -0.12180464 0.00074738264 -0.053273663 -0.09247577
000050 de 04 a8 bd 5c 06 ed bd 6c bd 5a bd f6 4a d5 3d
       -0.08204053 -0.115734786 -0.053403303 0.10414688
000060 40 2a 38 3c 00 99 91 ba 58 64 a2 3d 58 3a 5e 3d
       0.011240542 -0.001110822 0.07929295 0.05425486
000070 aa 09 84 bd ce 27 cd 3d fa a8 f0 3d e0 c5 ec 3c
       -0.06447156 0.10017358 0.1175098 0.028902948
000080 b2 07 d4 bd 50 f5 f9 bc 36 11 a1 3d f8 2f c4 bc
       -0.1035303 -0.030512482 0.07864611 -0.023948655
000090 40 6e c8 3b d4 e9 4f bd d0 4b c6 3c ea 75 b1 3d
       0.0061166584 -0.050760105 0.024206072 0.086650684
0000a0 ba 30 da bd 3c 4d 9d bd 2e 71 96 bd 48 8f 63 3d
       -0.10653825 -0.07680747 -0.07345806 0.055556566
0000b0 18 01 06 bd 3e ba b5 3d 66 9f 87 bd 00 29 f1 3c
       -0.032715887 0.088734135 -0.066222 0.029438496
0000c0 46 a1 d4 bd 78 3d b1 3d 64 de 70 bd 60 fc f4 3c
       -0.10382323 0.08654302 -0.05880584 0.029905498
0000d0 5c 14 45 3d 4e 34 d9 bd 9c 9a b2 3d e6 ee e6 bd
       0.04811512 -0.106056795 0.08720896 -0.11276035
0000e0 56 35 9e bd 6e ca b9 bd 46 37 fe bd 18 73 00 3d
       -0.07725017 -0.090718135 -0.12412886 0.031359762
0000f0 24 9e 4a 3d 62 f6 f0 3d 44 f2 87 bd ca 55 e4 3d
       0.04946722 0.11765744 -0.066380054 0.111491755
000100 6c 4d 08 bd 34 bb 2e bd d8 6a b6 3d 12 3b b9 3d
       -0.03327696 -0.042659 0.089070976 0.0904447
000110 c2 59 ee bd 3c 6d f6 bd 28 fd 1f 3d 38 08 fa 3d
       -0.11638214 -0.120325536 0.039059788 0.12208599
000120 86 15 ce 3d 34 ca 1d bd d4 e8 ee bd 08 fa cd 3d
       0.10062699 -0.038522914 -0.11665502 0.10057455
000130 40 9e 1d 3c 18 84 cc bc b8 53 c0 bc 90 74 44 3d
       0.009620249 -0.024965331 -0.02347742 0.047962725
000140 38 ed fa 3d 6a 10 98 3d dc d5 fc bd 98 de 9d bc
       0.12252277 0.07425006 -0.12345478 -0.01927118
000150 1a 6d cb 3d c0 93 58 3d bc 0a 80 bd c8 68 a1 bc
       0.09932919 0.05287528 -0.062520474 -0.019703284
000160 18 e4 4c 3d 80 87 a1 ba f8 cc 3f 3d ee 56 f0 bd
       0.050022215 -0.0012323707 0.046826333 -0.117353305
000170 8a 6a bc bd a0 b5 ef 3c 80 9a 9a 3c cc d6 23 3d
       -0.09200008 0.02926141 0.0188725 0.03999977
000180 40 db 2d bc d4 5f 73 bd 80 33 7c 3b c0 21 ae 3d
       -0.010611355 -0.05941756 0.0038482845 0.08502531
000190 a4 e4 fa bd 94 3b 73 3d 1e ae d3 3d 4e 21 d7 3d
       -0.12250641 0.05938299 0.103359446 0.10504399
0001a0 00 db 5e ba 36 65 d8 3d 6e be dd bd d8 b8 b2 3c
       -0.00085012615 0.105661795 -0.10827337 0.021816656
0001b0 70 aa 00 3d 68 fb 92 bc f4 c9 ca 3d 76 64 cd 3d
       0.031412542 -0.017942145 0.09901801 0.10028927
0001c0 fe fd b1 bd 72 b3 90 bd 44 a3 a8 bd 60 c1 7b 3d
       -0.08691023 -0.070654765 -0.082342654 0.061463714
0001d0 50 de 7c bd 44 06 fe 3d d0 56 65 3d b0 4c 6f bc
       -0.06173545 0.12403539 0.055990994 -0.014605686
0001e0 7c eb fc 3d 38 77 67 bd 24 33 46 bd 4e 94 a5 bd
       0.123496026 -0.05651018 -0.048388615 -0.080849275
0001f0 bc 9a 8c 3d 70 28 37 bd 44 c9 08 bd fe 18 9f bd
       0.06865451 -0.0447163 -0.033395067 -0.07768439
000200 68 76 cc 3c 80 f2 c3 bb 38 2f da 3c b4 a8 36 bd
       0.024958804 -0.005979836 0.026633844 -0.04459448
000210 04 d5 3c bd b4 11 06 bd a6 e3 f4 bd d6 43 ba bd
       -0.046101585 -0.032731727 -0.11957483 -0.0909497
000220 00 33 28 3c 0c d7 48 bd 74 53 3c bd 7e 3d cb bd
       0.010266066 -0.04903321 -0.045978025 -0.09923838
000230 8e 04 a6 bd 94 0f 70 bd 28 eb d7 3d 84 bc 23 3d
       -0.081063375 -0.058608606 0.10542899 0.039974704
000240 18 98 a6 3d e8 4d e5 bc 1c ec df 3d 00 c1 67 3d
       0.08134478 -0.02799125 0.10933706 0.056580544
000250 08 d1 34 bd 9e 17 d3 bd 6a 0f b8 bd e0 86 1f 3d
       -0.04414466 -0.10307239 -0.08987315 0.038946986
000260 00 a5 e5 3d 80 25 ff bc 40 7d 33 bd 38 d2 af 3d
       0.11213112 -0.031145811 -0.04382062 0.08585018
000270 00 86 c1 bd d8 f0 32 3d 30 88 ce bd 20 da 4c 3d
       -0.094493866 0.043686718 -0.100845695 0.050012708
000280 f8 34 62 bd 58 1d 0f bd 60 ac c0 3d fe e5 bb bd
       -0.055226296 -0.034940094 0.09407878 -0.09174727
000290 30 bb de 3c 1c 4a e5 3d a2 5b f6 bd d0 1c e5 3d
       0.027188867 0.11195776 -0.12029196 0.11187136
0002a0 00 c2 2d ba 8c 62 86 bd 7a f1 e8 bd c2 c2 e3 3d
       -0.00066283345 -0.06561765 -0.11374183 0.111211315
0002b0 34 8d e8 bd 70 ee 93 3c 56 33 86 bd d2 b4 80 bd
       -0.11355057 0.018058032 -0.0655276 -0.06284489
0002c0 6c d3 7f 3d ba c2 ff bd 2c bd d4 bd 10 99 df bd
       0.062457487 -0.12488313 -0.10387644 -0.10917866
0002d0 58 a2 5a 3d aa a6 a2 3d e0 93 1b 3d 00 22 8a 3b
       0.05337748 0.07941945 0.03798282 0.004215479
0002e0 e8 bf 9b 3c 80 e3 29 bd 38 cf 98 bc 40 7f c8 3c
       0.019012406 -0.041476727 -0.018653497 0.02447474
0002f0 e0 9a 99 3c 44 7e aa 3d f0 07 35 3c 98 0a 7f bd
       0.018750608 0.083248645 0.011049256 -0.062265962
000300 d4 0b b1 3d e8 9f ca bd 32 2d f5 3d 70 f6 f6 3d
       0.08644834 -0.09893781 0.11971511 0.12058723
000310 40 e1 53 3b d8 f5 a8 bc a6 e3 d1 3d 90 de a5 bd
       0.0032330304 -0.02062504 0.102484986 -0.08099091
000320 84 c6 fe bd 00 1c 88 39 c8 89 ad 3c 28 d9 6c 3d
       -0.124402076 0.00025960803 0.021183863 0.057824284
000330 46 be c7 bd 68 8f fc bd d2 e3 a4 bd 7a db ba 3d
       -0.09753089 -0.1233204 -0.08051266 0.09123893
000340 5a 88 88 3d 96 ca 8f 3d c0 d9 cc bd 90 bc 26 bc
       0.06666632 0.07021062 -0.1000247 -0.010176793
000350 98 3b 5b bd a0 46 02 3d 80 8a d8 bd 70 dd 5a bc
       -0.05352363 0.031805634 -0.10573292 -0.013358459
000360 20 7b 61 bd fc 88 0d bd d2 b5 e9 3d 00 33 7e bb
       -0.05504906 -0.034554467 0.114116326 -0.0038787723
000370 22 61 84 bd 2c e8 30 bd e8 33 1a 3d 12 5f c8 3d
       -0.06463839 -0.043190166 0.037647158 0.09783758
000380 70 3a 98 bd 98 46 14 bd 40 35 f7 3b 9a 45 8a bd
       -0.07433021 -0.036200136 0.0075441897 -0.06751557
000390 68 91 67 3d 5c 47 19 bd e8 aa 8d bd 10 ff 6f 3c
       0.056535155 -0.03742157 -0.069173634 0.014648214
0003a0 ec fc 78 3d f0 13 f8 3c 1e a1 d2 bd d8 61 b8 bd
       0.06078808 0.030282944 -0.10284637 -0.09003037
0003b0 18 d0 ab bd 7a 43 a1 3d 24 1a c6 3d c0 fd a4 bc
       -0.083893 0.07874198 0.09672955 -0.020140529
0003c0 f8 34 b0 3c 48 31 6c bd 24 5f e1 3d 68 47 9c 3d
       0.021509632 -0.057664186 0.11004475 0.07630807
0003d0 a0 14 7e bc ec b2 5f bd c0 16 3c 3b f2 bd ed 3d
       -0.015507847 -0.054613993 0.0028700083 0.11608495
0003e0 c2 1c d2 bd 80 5f f7 3d 40 cf 44 3c b0 96 80 bc
       -0.10259391 0.12078762 0.012012303 -0.015696853
0003f0 d4 b4 d9 bd 68 91 3f bd 7c b5 21 bd 9e 55 9e 3d
       -0.10630193 -0.04676953 -0.039479718 0.07731174

fc2.bias f4 [32]
000000 28 f9 38 3d 64 bf e0 bd f8 16 df 3c d0 99 13 bd
       0.04515949 -0.10974005 0.027232632 -0.03603536
000010 b6 88 83 bd 70 e7 58 bc 14 a1 bc 3d 34 1f 0a bd
       -0.0642256 -0.013238773 0.09210411 -0.033721164
000020 4a 7e cd 3d 82 be 91 bd 34 ef 4f bd 60 b7 7d 3d
       0.10033853 -0.071164146 -0.05076523 0.06194246
000030 f0 99 15 3c f8 1c 85 3d 06 60 eb 3d 70 b1 60 3d
       0.00913094 0.06499666 0.114929244 0.054856718
000040 08 be fd 3d c8 c8 8c 3d e6 e8 bf bd 60 19 56 3c
       0.12389761 0.068742335 -0.09370594 0.013067573
000050 cc 92 d9 bd 94 e4 36 3d 0c 7b 13 bd 10 8f 91 3c
       -0.106237024 0.044651583 -0.03600602 0.017768413
000060 aa a5 a5 3d a2 c8 ad 3d b0 51 86 bd a4 61 ec bd
       0.080882385 0.08485533 -0.065585494 -0.11542061
000070 10 20 5a bd 6e 96 e2 bd 28 93 c0 bd e8 79 66 bd
       -0.053253233 -0.110638484 -0.09403068 -0.056268603

fc3.weight f4 [3, 32]
000000 b7 78 98 bd 2e bc c0 3d 98 77 8e 3c b6 70 bf 3d
       -0.074448995 0.094108924 0.017391011 0.0934767
000010 5c 30 44 3d dd fd 30 3e e0 cf a5 bc e0 64 09 3d
       0.04789768 0.17284341 -0.020240724 0.033543468
000020 c0 5c ef 3b 04 4d 3d bd b0 97 3c bc 02 0b 8d 3d
       0.007304758 -0.046216026 -0.0115107745 0.06886865
000030 90 a2 61 3d 16 e2 69 bd f5 29 00 3e e6 1f f6 bd
       0.055086672 -0.057100378 0.12516005 -0.12017803
000040 9e 3e 2e be d4 47 2e 3d 07 81 05 be 8c bb 12 3d
       -0.17016074 0.04254897 -0.13037501 0.03582339
000050 81 0a d3 bd 40 f6 a8 bc 07 26 b7 bd 90 a2 46 3d
       -0.10304738 -0.020625234 -0.089428 0.048494875
000060 62 b3 32 be d8 ee c9 bc fe 77 dd 3d 6d 4d 0c 3e
       -0.17451242 -0.024650022 0.10813902 0.1370141
000070 b6 f1 b4 3d 50 4f 45 3c 52 17 c2 3d cf 25 31 3e
       0.08835165 0.012042835 0.09477104 0.17299579
000080 46 60 fd 3d 3a f9 21 be e0 d3 83 bd 00 33 44 ba
       0.12371878 -0.15817729 -0.06436896 -0.0007484406
000090 54 7f 6a bd 7f a9 1e be bc c6 1a be d8 36 d1 bc
       -0.057250336 -0.15494345 -0.15114874 -0.025538847
0000a0 40 d8 30 3b 11 db 2c 3e c0 e4 c4 bb 08 47 1f 3d
       0.0026984364 0.16880442 -0.0060087144 0.0388861
0000b0 eb 93 2e 3e 28 f9 fb 3c 2a ef ca 3d 37 3c 02 3e
       0.17048614 0.030758455 0.09908898 0.12718283
0000c0 22 cc 24 be a8 d9 24 be 8f 11 82 bd 95 83 31 be
       -0.16093495 -0.16098654 -0.06351005 -0.17335351
0000d0 52 45 d9 3d ae 21 ed bd 40 ec 6a 3b 00 8d 25 bc
       0.10608925 -0.115786895 0.0035846382 -0.010104418
0000e0 80 0f 89 ba fe 56 f0 3d d7 d0 25 be 91 70 28 3e
       -0.001045689 0.117353424 -0.16192947 0.1644919
0000f0 40 cb 51 bb d8 76 bb bc 26 20 0c be 7b 13 21 3e
       -0.0032012016 -0.022883818 -0.13684139 0.15730087
000100 80 54 ed 3c 1a 7c f0 3d 5e a3 9f 3d 1c 84 cc bd
       0.028970957 0.117424205 0.07794832 -0.09986135
000110 2f 9e 0b 3e c0 ea 50 3d b2 7d b9 3d a6 3b 20 be
       0.13634561 0.051005125 0.090571776 -0.15647754
000120 40 35 8a 3c 48 57 e2 bc d2 e9 f3 3d de a7 bf 3d
       0.016871095 -0.02762951 0.11909832 0.0935819
000130 04 66 95 3d 67 fa a0 bd 3c 38 81 bd 30 fe 31 bd
       0.072948486 -0.078602605 -0.06309554 -0.043455303
000140 ff 99 23 be 77 70 2e 3e 2e 08 a4 3d f8 b7 30 be
       -0.15976714 0.1703509 0.08009373 -0.17257679
000150 3b b7 1a 3e 2a 31 bc 3d 4e 01 9a 3d d8 42 12 bd
       0.1510896 0.09189065 0.0751978 -0.03570828
000160 41 8c a3 bd aa d4 e0 3d 98 f1 6b 3d db 87 13 3e
       -0.07985736 0.109780625 0.05760345 0.14407293
000170 e0 2f cb bb fe bc de bd 74 9b f6 bd 76 91 fa 3d
       -0.0062007755 -0.10875891 -0.12041369 0.12234776

fc3.bias f4 [3]
000000 27 39 12 3e 6a f7 d4 bd 82 63 c9 bd
       0.14279614 -0.10398753 -0.09833433
